{"modelTopology": {"keras_version": "2.2.4-tf", "backend": "tensorflow", "model_config": {"class_name": "Model", "config": {"name": "model", "layers": [{"name": "input_1", "class_name": "InputLayer", "config": {"batch_input_shape": [null, 224, 224, 3], "dtype": "float32", "sparse": false, "name": "input_1"}, "inbound_nodes": []}, {"name": "Conv1_pad", "class_name": "ZeroPadding2D", "config": {"name": "Conv1_pad", "trainable": true, "dtype": "float32", "padding": [[0, 1], [0, 1]], "data_format": "channels_last"}, "inbound_nodes": [["input_1", 0, 0, {}]]}, {"name": "Conv1", "class_name": "Conv2D", "config": {"name": "Conv1", "trainable": true, "dtype": "float32", "filters": 16, "kernel_size": [3, 3], "strides": [2, 2], "padding": "valid", "data_format": "channels_last", "dilation_rate": [1, 1], "activation": "linear", "use_bias": false, "kernel_initializer": {"class_name": "GlorotUniform", "config": {"seed": null, "dtype": "float32"}}, "bias_initializer": {"class_name": "Zeros", "config": {"dtype": "float32"}}, "kernel_regularizer": null, "bias_regularizer": null, "activity_regularizer": null, "kernel_constraint": null, "bias_constraint": null}, "inbound_nodes": [["Conv1_pad", 0, 0, {}]]}, {"name": "bn_Conv1", "class_name": "BatchNormalizationV1", "config": {"name": "bn_Conv1", "trainable": true, "dtype": "float32", "axis": [3], "momentum": 0.999, "epsilon": 0.001, "center": true, "scale": true, "beta_initializer": {"class_name": "Zeros", "config": {"dtype": "float32"}}, "gamma_initializer": {"class_name": "Ones", "config": {"dtype": "float32"}}, "moving_mean_initializer": {"class_name": "Zeros", "config": {"dtype": "float32"}}, "moving_variance_initializer": {"class_name": "Ones", "config": {"dtype": "float32"}}, "beta_regularizer": null, "gamma_regularizer": null, "beta_constraint": null, "gamma_constraint": null}, "inbound_nodes": [["Conv1", 0, 0, {}]]}, {"name": "Conv1_relu", "class_name": "ReLU", "config": {"name": "Conv1_relu", "trainable": true, "dtype": "float32", "max_value": 6.0, "negative_slope": 0.0, "threshold": 0.0}, "inbound_nodes": [["bn_Conv1", 0, 0, {}]]}, {"name": "expanded_conv_depthwise", "class_name": "DepthwiseConv2D", "config": {"name": "expanded_conv_depthwise", "trainable": true, "dtype": "float32", "kernel_size": [3, 3], "strides": [1, 1], "padding": "same", "data_format": "channels_last", "dilation_rate": [1, 1], "activation": "linear", "use_bias": false, "bias_initializer": {"class_name": "Zeros", "config": {"dtype": "float32"}}, "bias_regularizer": null, "activity_regularizer": null, "bias_constraint": null, "depth_multiplier": 1, "depthwise_initializer": {"class_name": "GlorotUniform", "config": {"seed": null, "dtype": "float32"}}, "depthwise_regularizer": null, "depthwise_constraint": null}, "inbound_nodes": [["Conv1_relu", 0, 0, {}]]}, {"name": "expanded_conv_depthwise_BN", "class_name": "BatchNormalizationV1", "config": {"name": "expanded_conv_depthwise_BN", "trainable": true, "dtype": "float32", "axis": [3], "momentum": 0.999, "epsilon": 0.001, "center": true, "scale": true, "beta_initializer": {"class_name": "Zeros", "config": {"dtype": "float32"}}, "gamma_initializer": {"class_name": "Ones", "config": {"dtype": "float32"}}, "moving_mean_initializer": {"class_name": "Zeros", "config": {"dtype": "float32"}}, "moving_variance_initializer": {"class_name": "Ones", "config": {"dtype": "float32"}}, "beta_regularizer": null, "gamma_regularizer": null, "beta_constraint": null, "gamma_constraint": null}, "inbound_nodes": [["expanded_conv_depthwise", 0, 0, {}]]}, {"name": "expanded_conv_depthwise_relu", "class_name": "ReLU", "config": {"name": "expanded_conv_depthwise_relu", "trainable": true, "dtype": "float32", "max_value": 6.0, "negative_slope": 0.0, "threshold": 0.0}, "inbound_nodes": [["expanded_conv_depthwise_BN", 0, 0, {}]]}, {"name": "expanded_conv_project", "class_name": "Conv2D", "config": {"name": "expanded_conv_project", "trainable": true, "dtype": "float32", "filters": 8, "kernel_size": [1, 1], "strides": [1, 1], "padding": "same", "data_format": "channels_last", "dilation_rate": [1, 1], "activation": "linear", "use_bias": false, "kernel_initializer": {"class_name": "GlorotUniform", "config": {"seed": null, "dtype": "float32"}}, "bias_initializer": {"class_name": "Zeros", "config": {"dtype": "float32"}}, "kernel_regularizer": null, "bias_regularizer": null, "activity_regularizer": null, "kernel_constraint": null, "bias_constraint": null}, "inbound_nodes": [["expanded_conv_depthwise_relu", 0, 0, {}]]}, {"name": "expanded_conv_project_BN", "class_name": "BatchNormalizationV1", "config": {"name": "expanded_conv_project_BN", "trainable": true, "dtype": "float32", "axis": [3], "momentum": 0.999, "epsilon": 0.001, "center": true, "scale": true, "beta_initializer": {"class_name": "Zeros", "config": {"dtype": "float32"}}, "gamma_initializer": {"class_name": "Ones", "config": {"dtype": "float32"}}, "moving_mean_initializer": {"class_name": "Zeros", "config": {"dtype": "float32"}}, "moving_variance_initializer": {"class_name": "Ones", "config": {"dtype": "float32"}}, "beta_regularizer": null, "gamma_regularizer": null, "beta_constraint": null, "gamma_constraint": null}, "inbound_nodes": [["expanded_conv_project", 0, 0, {}]]}, {"name": "block_1_expand", "class_name": "Conv2D", "config": {"name": "block_1_expand", "trainable": true, "dtype": "float32", "filters": 48, "kernel_size": [1, 1], "strides": [1, 1], "padding": "same", "data_format": "channels_last", "dilation_rate": [1, 1], "activation": "linear", "use_bias": false, "kernel_initializer": {"class_name": "GlorotUniform", "config": {"seed": null, "dtype": "float32"}}, "bias_initializer": {"class_name": "Zeros", "config": {"dtype": "float32"}}, "kernel_regularizer": null, "bias_regularizer": null, "activity_regularizer": null, "kernel_constraint": null, "bias_constraint": null}, "inbound_nodes": [["expanded_conv_project_BN", 0, 0, {}]]}, {"name": "block_1_expand_BN", "class_name": "BatchNormalizationV1", "config": {"name": "block_1_expand_BN", "trainable": true, "dtype": "float32", "axis": [3], "momentum": 0.999, "epsilon": 0.001, "center": true, "scale": true, "beta_initializer": {"class_name": "Zeros", "config": {"dtype": "float32"}}, "gamma_initializer": {"class_name": "Ones", "config": {"dtype": "float32"}}, "moving_mean_initializer": {"class_name": "Zeros", "config": {"dtype": "float32"}}, "moving_variance_initializer": {"class_name": "Ones", "config": {"dtype": "float32"}}, "beta_regularizer": null, "gamma_regularizer": null, "beta_constraint": null, "gamma_constraint": null}, "inbound_nodes": [["block_1_expand", 0, 0, {}]]}, {"name": "block_1_expand_relu", "class_name": "ReLU", "config": {"name": "block_1_expand_relu", "trainable": true, "dtype": "float32", "max_value": 6.0, "negative_slope": 0.0, "threshold": 0.0}, "inbound_nodes": [["block_1_expand_BN", 0, 0, {}]]}, {"name": "block_1_pad", "class_name": "ZeroPadding2D", "config": {"name": "block_1_pad", "trainable": true, "dtype": "float32", "padding": [[0, 1], [0, 1]], "data_format": "channels_last"}, "inbound_nodes": [["block_1_expand_relu", 0, 0, {}]]}, {"name": "block_1_depthwise", "class_name": "DepthwiseConv2D", "config": {"name": "block_1_depthwise", "trainable": true, "dtype": "float32", "kernel_size": [3, 3], "strides": [2, 2], "padding": "valid", "data_format": "channels_last", "dilation_rate": [1, 1], "activation": "linear", "use_bias": false, "bias_initializer": {"class_name": "Zeros", "config": {"dtype": "float32"}}, "bias_regularizer": null, "activity_regularizer": null, "bias_constraint": null, "depth_multiplier": 1, "depthwise_initializer": {"class_name": "GlorotUniform", "config": {"seed": null, "dtype": "float32"}}, "depthwise_regularizer": null, "depthwise_constraint": null}, "inbound_nodes": [["block_1_pad", 0, 0, {}]]}, {"name": "block_1_depthwise_BN", "class_name": "BatchNormalizationV1", "config": {"name": "block_1_depthwise_BN", "trainable": true, "dtype": "float32", "axis": [3], "momentum": 0.999, "epsilon": 0.001, "center": true, "scale": true, "beta_initializer": {"class_name": "Zeros", "config": {"dtype": "float32"}}, "gamma_initializer": {"class_name": "Ones", "config": {"dtype": "float32"}}, "moving_mean_initializer": {"class_name": "Zeros", "config": {"dtype": "float32"}}, "moving_variance_initializer": {"class_name": "Ones", "config": {"dtype": "float32"}}, "beta_regularizer": null, "gamma_regularizer": null, "beta_constraint": null, "gamma_constraint": null}, "inbound_nodes": [["block_1_depthwise", 0, 0, {}]]}, {"name": "block_1_depthwise_relu", "class_name": "ReLU", "config": {"name": "block_1_depthwise_relu", "trainable": true, "dtype": "float32", "max_value": 6.0, "negative_slope": 0.0, "threshold": 0.0}, "inbound_nodes": [["block_1_depthwise_BN", 0, 0, {}]]}, {"name": "block_1_project", "class_name": "Conv2D", "config": {"name": "block_1_project", "trainable": true, "dtype": "float32", "filters": 16, "kernel_size": [1, 1], "strides": [1, 1], "padding": "same", "data_format": "channels_last", "dilation_rate": [1, 1], "activation": "linear", "use_bias": false, "kernel_initializer": {"class_name": "GlorotUniform", "config": {"seed": null, "dtype": "float32"}}, "bias_initializer": {"class_name": "Zeros", "config": {"dtype": "float32"}}, "kernel_regularizer": null, "bias_regularizer": null, "activity_regularizer": null, "kernel_constraint": null, "bias_constraint": null}, "inbound_nodes": [["block_1_depthwise_relu", 0, 0, {}]]}, {"name": "block_1_project_BN", "class_name": "BatchNormalizationV1", "config": {"name": "block_1_project_BN", "trainable": true, "dtype": "float32", "axis": [3], "momentum": 0.999, "epsilon": 0.001, "center": true, "scale": true, "beta_initializer": {"class_name": "Zeros", "config": {"dtype": "float32"}}, "gamma_initializer": {"class_name": "Ones", "config": {"dtype": "float32"}}, "moving_mean_initializer": {"class_name": "Zeros", "config": {"dtype": "float32"}}, "moving_variance_initializer": {"class_name": "Ones", "config": {"dtype": "float32"}}, "beta_regularizer": null, "gamma_regularizer": null, "beta_constraint": null, "gamma_constraint": null}, "inbound_nodes": [["block_1_project", 0, 0, {}]]}, {"name": "block_2_expand", "class_name": "Conv2D", "config": {"name": "block_2_expand", "trainable": true, "dtype": "float32", "filters": 96, "kernel_size": [1, 1], "strides": [1, 1], "padding": "same", "data_format": "channels_last", "dilation_rate": [1, 1], "activation": "linear", "use_bias": false, "kernel_initializer": {"class_name": "GlorotUniform", "config": {"seed": null, "dtype": "float32"}}, "bias_initializer": {"class_name": "Zeros", "config": {"dtype": "float32"}}, "kernel_regularizer": null, "bias_regularizer": null, "activity_regularizer": null, "kernel_constraint": null, "bias_constraint": null}, "inbound_nodes": [["block_1_project_BN", 0, 0, {}]]}, {"name": "block_2_expand_BN", "class_name": "BatchNormalizationV1", "config": {"name": "block_2_expand_BN", "trainable": true, "dtype": "float32", "axis": [3], "momentum": 0.999, "epsilon": 0.001, "center": true, "scale": true, "beta_initializer": {"class_name": "Zeros", "config": {"dtype": "float32"}}, "gamma_initializer": {"class_name": "Ones", "config": {"dtype": "float32"}}, "moving_mean_initializer": {"class_name": "Zeros", "config": {"dtype": "float32"}}, "moving_variance_initializer": {"class_name": "Ones", "config": {"dtype": "float32"}}, "beta_regularizer": null, "gamma_regularizer": null, "beta_constraint": null, "gamma_constraint": null}, "inbound_nodes": [["block_2_expand", 0, 0, {}]]}, {"name": "block_2_expand_relu", "class_name": "ReLU", "config": {"name": "block_2_expand_relu", "trainable": true, "dtype": "float32", "max_value": 6.0, "negative_slope": 0.0, "threshold": 0.0}, "inbound_nodes": [["block_2_expand_BN", 0, 0, {}]]}, {"name": "block_2_depthwise", "class_name": "DepthwiseConv2D", "config": {"name": "block_2_depthwise", "trainable": true, "dtype": "float32", "kernel_size": [3, 3], "strides": [1, 1], "padding": "same", "data_format": "channels_last", "dilation_rate": [1, 1], "activation": "linear", "use_bias": false, "bias_initializer": {"class_name": "Zeros", "config": {"dtype": "float32"}}, "bias_regularizer": null, "activity_regularizer": null, "bias_constraint": null, "depth_multiplier": 1, "depthwise_initializer": {"class_name": "GlorotUniform", "config": {"seed": null, "dtype": "float32"}}, "depthwise_regularizer": null, "depthwise_constraint": null}, "inbound_nodes": [["block_2_expand_relu", 0, 0, {}]]}, {"name": "block_2_depthwise_BN", "class_name": "BatchNormalizationV1", "config": {"name": "block_2_depthwise_BN", "trainable": true, "dtype": "float32", "axis": [3], "momentum": 0.999, "epsilon": 0.001, "center": true, "scale": true, "beta_initializer": {"class_name": "Zeros", "config": {"dtype": "float32"}}, "gamma_initializer": {"class_name": "Ones", "config": {"dtype": "float32"}}, "moving_mean_initializer": {"class_name": "Zeros", "config": {"dtype": "float32"}}, "moving_variance_initializer": {"class_name": "Ones", "config": {"dtype": "float32"}}, "beta_regularizer": null, "gamma_regularizer": null, "beta_constraint": null, "gamma_constraint": null}, "inbound_nodes": [["block_2_depthwise", 0, 0, {}]]}, {"name": "block_2_depthwise_relu", "class_name": "ReLU", "config": {"name": "block_2_depthwise_relu", "trainable": true, "dtype": "float32", "max_value": 6.0, "negative_slope": 0.0, "threshold": 0.0}, "inbound_nodes": [["block_2_depthwise_BN", 0, 0, {}]]}, {"name": "block_2_project", "class_name": "Conv2D", "config": {"name": "block_2_project", "trainable": true, "dtype": "float32", "filters": 16, "kernel_size": [1, 1], "strides": [1, 1], "padding": "same", "data_format": "channels_last", "dilation_rate": [1, 1], "activation": "linear", "use_bias": false, "kernel_initializer": {"class_name": "GlorotUniform", "config": {"seed": null, "dtype": "float32"}}, "bias_initializer": {"class_name": "Zeros", "config": {"dtype": "float32"}}, "kernel_regularizer": null, "bias_regularizer": null, "activity_regularizer": null, "kernel_constraint": null, "bias_constraint": null}, "inbound_nodes": [["block_2_depthwise_relu", 0, 0, {}]]}, {"name": "block_2_project_BN", "class_name": "BatchNormalizationV1", "config": {"name": "block_2_project_BN", "trainable": true, "dtype": "float32", "axis": [3], "momentum": 0.999, "epsilon": 0.001, "center": true, "scale": true, "beta_initializer": {"class_name": "Zeros", "config": {"dtype": "float32"}}, "gamma_initializer": {"class_name": "Ones", "config": {"dtype": "float32"}}, "moving_mean_initializer": {"class_name": "Zeros", "config": {"dtype": "float32"}}, "moving_variance_initializer": {"class_name": "Ones", "config": {"dtype": "float32"}}, "beta_regularizer": null, "gamma_regularizer": null, "beta_constraint": null, "gamma_constraint": null}, "inbound_nodes": [["block_2_project", 0, 0, {}]]}, {"name": "block_2_add", "class_name": "Add", "config": {"name": "block_2_add", "trainable": true, "dtype": "float32"}, "inbound_nodes": [[["block_1_project_BN", 0, 0, {}], ["block_2_project_BN", 0, 0, {}]]]}, {"name": "block_3_expand", "class_name": "Conv2D", "config": {"name": "block_3_expand", "trainable": true, "dtype": "float32", "filters": 96, "kernel_size": [1, 1], "strides": [1, 1], "padding": "same", "data_format": "channels_last", "dilation_rate": [1, 1], "activation": "linear", "use_bias": false, "kernel_initializer": {"class_name": "GlorotUniform", "config": {"seed": null, "dtype": "float32"}}, "bias_initializer": {"class_name": "Zeros", "config": {"dtype": "float32"}}, "kernel_regularizer": null, "bias_regularizer": null, "activity_regularizer": null, "kernel_constraint": null, "bias_constraint": null}, "inbound_nodes": [["block_2_add", 0, 0, {}]]}, {"name": "block_3_expand_BN", "class_name": "BatchNormalizationV1", "config": {"name": "block_3_expand_BN", "trainable": true, "dtype": "float32", "axis": [3], "momentum": 0.999, "epsilon": 0.001, "center": true, "scale": true, "beta_initializer": {"class_name": "Zeros", "config": {"dtype": "float32"}}, "gamma_initializer": {"class_name": "Ones", "config": {"dtype": "float32"}}, "moving_mean_initializer": {"class_name": "Zeros", "config": {"dtype": "float32"}}, "moving_variance_initializer": {"class_name": "Ones", "config": {"dtype": "float32"}}, "beta_regularizer": null, "gamma_regularizer": null, "beta_constraint": null, "gamma_constraint": null}, "inbound_nodes": [["block_3_expand", 0, 0, {}]]}, {"name": "block_3_expand_relu", "class_name": "ReLU", "config": {"name": "block_3_expand_relu", "trainable": true, "dtype": "float32", "max_value": 6.0, "negative_slope": 0.0, "threshold": 0.0}, "inbound_nodes": [["block_3_expand_BN", 0, 0, {}]]}, {"name": "block_3_pad", "class_name": "ZeroPadding2D", "config": {"name": "block_3_pad", "trainable": true, "dtype": "float32", "padding": [[0, 1], [0, 1]], "data_format": "channels_last"}, "inbound_nodes": [["block_3_expand_relu", 0, 0, {}]]}, {"name": "block_3_depthwise", "class_name": "DepthwiseConv2D", "config": {"name": "block_3_depthwise", "trainable": true, "dtype": "float32", "kernel_size": [3, 3], "strides": [2, 2], "padding": "valid", "data_format": "channels_last", "dilation_rate": [1, 1], "activation": "linear", "use_bias": false, "bias_initializer": {"class_name": "Zeros", "config": {"dtype": "float32"}}, "bias_regularizer": null, "activity_regularizer": null, "bias_constraint": null, "depth_multiplier": 1, "depthwise_initializer": {"class_name": "GlorotUniform", "config": {"seed": null, "dtype": "float32"}}, "depthwise_regularizer": null, "depthwise_constraint": null}, "inbound_nodes": [["block_3_pad", 0, 0, {}]]}, {"name": "block_3_depthwise_BN", "class_name": "BatchNormalizationV1", "config": {"name": "block_3_depthwise_BN", "trainable": true, "dtype": "float32", "axis": [3], "momentum": 0.999, "epsilon": 0.001, "center": true, "scale": true, "beta_initializer": {"class_name": "Zeros", "config": {"dtype": "float32"}}, "gamma_initializer": {"class_name": "Ones", "config": {"dtype": "float32"}}, "moving_mean_initializer": {"class_name": "Zeros", "config": {"dtype": "float32"}}, "moving_variance_initializer": {"class_name": "Ones", "config": {"dtype": "float32"}}, "beta_regularizer": null, "gamma_regularizer": null, "beta_constraint": null, "gamma_constraint": null}, "inbound_nodes": [["block_3_depthwise", 0, 0, {}]]}, {"name": "block_3_depthwise_relu", "class_name": "ReLU", "config": {"name": "block_3_depthwise_relu", "trainable": true, "dtype": "float32", "max_value": 6.0, "negative_slope": 0.0, "threshold": 0.0}, "inbound_nodes": [["block_3_depthwise_BN", 0, 0, {}]]}, {"name": "block_3_project", "class_name": "Conv2D", "config": {"name": "block_3_project", "trainable": true, "dtype": "float32", "filters": 16, "kernel_size": [1, 1], "strides": [1, 1], "padding": "same", "data_format": "channels_last", "dilation_rate": [1, 1], "activation": "linear", "use_bias": false, "kernel_initializer": {"class_name": "GlorotUniform", "config": {"seed": null, "dtype": "float32"}}, "bias_initializer": {"class_name": "Zeros", "config": {"dtype": "float32"}}, "kernel_regularizer": null, "bias_regularizer": null, "activity_regularizer": null, "kernel_constraint": null, "bias_constraint": null}, "inbound_nodes": [["block_3_depthwise_relu", 0, 0, {}]]}, {"name": "block_3_project_BN", "class_name": "BatchNormalizationV1", "config": {"name": "block_3_project_BN", "trainable": true, "dtype": "float32", "axis": [3], "momentum": 0.999, "epsilon": 0.001, "center": true, "scale": true, "beta_initializer": {"class_name": "Zeros", "config": {"dtype": "float32"}}, "gamma_initializer": {"class_name": "Ones", "config": {"dtype": "float32"}}, "moving_mean_initializer": {"class_name": "Zeros", "config": {"dtype": "float32"}}, "moving_variance_initializer": {"class_name": "Ones", "config": {"dtype": "float32"}}, "beta_regularizer": null, "gamma_regularizer": null, "beta_constraint": null, "gamma_constraint": null}, "inbound_nodes": [["block_3_project", 0, 0, {}]]}, {"name": "block_4_expand", "class_name": "Conv2D", "config": {"name": "block_4_expand", "trainable": true, "dtype": "float32", "filters": 96, "kernel_size": [1, 1], "strides": [1, 1], "padding": "same", "data_format": "channels_last", "dilation_rate": [1, 1], "activation": "linear", "use_bias": false, "kernel_initializer": {"class_name": "GlorotUniform", "config": {"seed": null, "dtype": "float32"}}, "bias_initializer": {"class_name": "Zeros", "config": {"dtype": "float32"}}, "kernel_regularizer": null, "bias_regularizer": null, "activity_regularizer": null, "kernel_constraint": null, "bias_constraint": null}, "inbound_nodes": [["block_3_project_BN", 0, 0, {}]]}, {"name": "block_4_expand_BN", "class_name": "BatchNormalizationV1", "config": {"name": "block_4_expand_BN", "trainable": true, "dtype": "float32", "axis": [3], "momentum": 0.999, "epsilon": 0.001, "center": true, "scale": true, "beta_initializer": {"class_name": "Zeros", "config": {"dtype": "float32"}}, "gamma_initializer": {"class_name": "Ones", "config": {"dtype": "float32"}}, "moving_mean_initializer": {"class_name": "Zeros", "config": {"dtype": "float32"}}, "moving_variance_initializer": {"class_name": "Ones", "config": {"dtype": "float32"}}, "beta_regularizer": null, "gamma_regularizer": null, "beta_constraint": null, "gamma_constraint": null}, "inbound_nodes": [["block_4_expand", 0, 0, {}]]}, {"name": "block_4_expand_relu", "class_name": "ReLU", "config": {"name": "block_4_expand_relu", "trainable": true, "dtype": "float32", "max_value": 6.0, "negative_slope": 0.0, "threshold": 0.0}, "inbound_nodes": [["block_4_expand_BN", 0, 0, {}]]}, {"name": "block_4_depthwise", "class_name": "DepthwiseConv2D", "config": {"name": "block_4_depthwise", "trainable": true, "dtype": "float32", "kernel_size": [3, 3], "strides": [1, 1], "padding": "same", "data_format": "channels_last", "dilation_rate": [1, 1], "activation": "linear", "use_bias": false, "bias_initializer": {"class_name": "Zeros", "config": {"dtype": "float32"}}, "bias_regularizer": null, "activity_regularizer": null, "bias_constraint": null, "depth_multiplier": 1, "depthwise_initializer": {"class_name": "GlorotUniform", "config": {"seed": null, "dtype": "float32"}}, "depthwise_regularizer": null, "depthwise_constraint": null}, "inbound_nodes": [["block_4_expand_relu", 0, 0, {}]]}, {"name": "block_4_depthwise_BN", "class_name": "BatchNormalizationV1", "config": {"name": "block_4_depthwise_BN", "trainable": true, "dtype": "float32", "axis": [3], "momentum": 0.999, "epsilon": 0.001, "center": true, "scale": true, "beta_initializer": {"class_name": "Zeros", "config": {"dtype": "float32"}}, "gamma_initializer": {"class_name": "Ones", "config": {"dtype": "float32"}}, "moving_mean_initializer": {"class_name": "Zeros", "config": {"dtype": "float32"}}, "moving_variance_initializer": {"class_name": "Ones", "config": {"dtype": "float32"}}, "beta_regularizer": null, "gamma_regularizer": null, "beta_constraint": null, "gamma_constraint": null}, "inbound_nodes": [["block_4_depthwise", 0, 0, {}]]}, {"name": "block_4_depthwise_relu", "class_name": "ReLU", "config": {"name": "block_4_depthwise_relu", "trainable": true, "dtype": "float32", "max_value": 6.0, "negative_slope": 0.0, "threshold": 0.0}, "inbound_nodes": [["block_4_depthwise_BN", 0, 0, {}]]}, {"name": "block_4_project", "class_name": "Conv2D", "config": {"name": "block_4_project", "trainable": true, "dtype": "float32", "filters": 16, "kernel_size": [1, 1], "strides": [1, 1], "padding": "same", "data_format": "channels_last", "dilation_rate": [1, 1], "activation": "linear", "use_bias": false, "kernel_initializer": {"class_name": "GlorotUniform", "config": {"seed": null, "dtype": "float32"}}, "bias_initializer": {"class_name": "Zeros", "config": {"dtype": "float32"}}, "kernel_regularizer": null, "bias_regularizer": null, "activity_regularizer": null, "kernel_constraint": null, "bias_constraint": null}, "inbound_nodes": [["block_4_depthwise_relu", 0, 0, {}]]}, {"name": "block_4_project_BN", "class_name": "BatchNormalizationV1", "config": {"name": "block_4_project_BN", "trainable": true, "dtype": "float32", "axis": [3], "momentum": 0.999, "epsilon": 0.001, "center": true, "scale": true, "beta_initializer": {"class_name": "Zeros", "config": {"dtype": "float32"}}, "gamma_initializer": {"class_name": "Ones", "config": {"dtype": "float32"}}, "moving_mean_initializer": {"class_name": "Zeros", "config": {"dtype": "float32"}}, "moving_variance_initializer": {"class_name": "Ones", "config": {"dtype": "float32"}}, "beta_regularizer": null, "gamma_regularizer": null, "beta_constraint": null, "gamma_constraint": null}, "inbound_nodes": [["block_4_project", 0, 0, {}]]}, {"name": "block_4_add", "class_name": "Add", "config": {"name": "block_4_add", "trainable": true, "dtype": "float32"}, "inbound_nodes": [[["block_3_project_BN", 0, 0, {}], ["block_4_project_BN", 0, 0, {}]]]}, {"name": "block_5_expand", "class_name": "Conv2D", "config": {"name": "block_5_expand", "trainable": true, "dtype": "float32", "filters": 96, "kernel_size": [1, 1], "strides": [1, 1], "padding": "same", "data_format": "channels_last", "dilation_rate": [1, 1], "activation": "linear", "use_bias": false, "kernel_initializer": {"class_name": "GlorotUniform", "config": {"seed": null, "dtype": "float32"}}, "bias_initializer": {"class_name": "Zeros", "config": {"dtype": "float32"}}, "kernel_regularizer": null, "bias_regularizer": null, "activity_regularizer": null, "kernel_constraint": null, "bias_constraint": null}, "inbound_nodes": [["block_4_add", 0, 0, {}]]}, {"name": "block_5_expand_BN", "class_name": "BatchNormalizationV1", "config": {"name": "block_5_expand_BN", "trainable": true, "dtype": "float32", "axis": [3], "momentum": 0.999, "epsilon": 0.001, "center": true, "scale": true, "beta_initializer": {"class_name": "Zeros", "config": {"dtype": "float32"}}, "gamma_initializer": {"class_name": "Ones", "config": {"dtype": "float32"}}, "moving_mean_initializer": {"class_name": "Zeros", "config": {"dtype": "float32"}}, "moving_variance_initializer": {"class_name": "Ones", "config": {"dtype": "float32"}}, "beta_regularizer": null, "gamma_regularizer": null, "beta_constraint": null, "gamma_constraint": null}, "inbound_nodes": [["block_5_expand", 0, 0, {}]]}, {"name": "block_5_expand_relu", "class_name": "ReLU", "config": {"name": "block_5_expand_relu", "trainable": true, "dtype": "float32", "max_value": 6.0, "negative_slope": 0.0, "threshold": 0.0}, "inbound_nodes": [["block_5_expand_BN", 0, 0, {}]]}, {"name": "block_5_depthwise", "class_name": "DepthwiseConv2D", "config": {"name": "block_5_depthwise", "trainable": true, "dtype": "float32", "kernel_size": [3, 3], "strides": [1, 1], "padding": "same", "data_format": "channels_last", "dilation_rate": [1, 1], "activation": "linear", "use_bias": false, "bias_initializer": {"class_name": "Zeros", "config": {"dtype": "float32"}}, "bias_regularizer": null, "activity_regularizer": null, "bias_constraint": null, "depth_multiplier": 1, "depthwise_initializer": {"class_name": "GlorotUniform", "config": {"seed": null, "dtype": "float32"}}, "depthwise_regularizer": null, "depthwise_constraint": null}, "inbound_nodes": [["block_5_expand_relu", 0, 0, {}]]}, {"name": "block_5_depthwise_BN", "class_name": "BatchNormalizationV1", "config": {"name": "block_5_depthwise_BN", "trainable": true, "dtype": "float32", "axis": [3], "momentum": 0.999, "epsilon": 0.001, "center": true, "scale": true, "beta_initializer": {"class_name": "Zeros", "config": {"dtype": "float32"}}, "gamma_initializer": {"class_name": "Ones", "config": {"dtype": "float32"}}, "moving_mean_initializer": {"class_name": "Zeros", "config": {"dtype": "float32"}}, "moving_variance_initializer": {"class_name": "Ones", "config": {"dtype": "float32"}}, "beta_regularizer": null, "gamma_regularizer": null, "beta_constraint": null, "gamma_constraint": null}, "inbound_nodes": [["block_5_depthwise", 0, 0, {}]]}, {"name": "block_5_depthwise_relu", "class_name": "ReLU", "config": {"name": "block_5_depthwise_relu", "trainable": true, "dtype": "float32", "max_value": 6.0, "negative_slope": 0.0, "threshold": 0.0}, "inbound_nodes": [["block_5_depthwise_BN", 0, 0, {}]]}, {"name": "block_5_project", "class_name": "Conv2D", "config": {"name": "block_5_project", "trainable": true, "dtype": "float32", "filters": 16, "kernel_size": [1, 1], "strides": [1, 1], "padding": "same", "data_format": "channels_last", "dilation_rate": [1, 1], "activation": "linear", "use_bias": false, "kernel_initializer": {"class_name": "GlorotUniform", "config": {"seed": null, "dtype": "float32"}}, "bias_initializer": {"class_name": "Zeros", "config": {"dtype": "float32"}}, "kernel_regularizer": null, "bias_regularizer": null, "activity_regularizer": null, "kernel_constraint": null, "bias_constraint": null}, "inbound_nodes": [["block_5_depthwise_relu", 0, 0, {}]]}, {"name": "block_5_project_BN", "class_name": "BatchNormalizationV1", "config": {"name": "block_5_project_BN", "trainable": true, "dtype": "float32", "axis": [3], "momentum": 0.999, "epsilon": 0.001, "center": true, "scale": true, "beta_initializer": {"class_name": "Zeros", "config": {"dtype": "float32"}}, "gamma_initializer": {"class_name": "Ones", "config": {"dtype": "float32"}}, "moving_mean_initializer": {"class_name": "Zeros", "config": {"dtype": "float32"}}, "moving_variance_initializer": {"class_name": "Ones", "config": {"dtype": "float32"}}, "beta_regularizer": null, "gamma_regularizer": null, "beta_constraint": null, "gamma_constraint": null}, "inbound_nodes": [["block_5_project", 0, 0, {}]]}, {"name": "block_5_add", "class_name": "Add", "config": {"name": "block_5_add", "trainable": true, "dtype": "float32"}, "inbound_nodes": [[["block_4_add", 0, 0, {}], ["block_5_project_BN", 0, 0, {}]]]}, {"name": "block_6_expand", "class_name": "Conv2D", "config": {"name": "block_6_expand", "trainable": true, "dtype": "float32", "filters": 96, "kernel_size": [1, 1], "strides": [1, 1], "padding": "same", "data_format": "channels_last", "dilation_rate": [1, 1], "activation": "linear", "use_bias": false, "kernel_initializer": {"class_name": "GlorotUniform", "config": {"seed": null, "dtype": "float32"}}, "bias_initializer": {"class_name": "Zeros", "config": {"dtype": "float32"}}, "kernel_regularizer": null, "bias_regularizer": null, "activity_regularizer": null, "kernel_constraint": null, "bias_constraint": null}, "inbound_nodes": [["block_5_add", 0, 0, {}]]}, {"name": "block_6_expand_BN", "class_name": "BatchNormalizationV1", "config": {"name": "block_6_expand_BN", "trainable": true, "dtype": "float32", "axis": [3], "momentum": 0.999, "epsilon": 0.001, "center": true, "scale": true, "beta_initializer": {"class_name": "Zeros", "config": {"dtype": "float32"}}, "gamma_initializer": {"class_name": "Ones", "config": {"dtype": "float32"}}, "moving_mean_initializer": {"class_name": "Zeros", "config": {"dtype": "float32"}}, "moving_variance_initializer": {"class_name": "Ones", "config": {"dtype": "float32"}}, "beta_regularizer": null, "gamma_regularizer": null, "beta_constraint": null, "gamma_constraint": null}, "inbound_nodes": [["block_6_expand", 0, 0, {}]]}, {"name": "block_6_expand_relu", "class_name": "ReLU", "config": {"name": "block_6_expand_relu", "trainable": true, "dtype": "float32", "max_value": 6.0, "negative_slope": 0.0, "threshold": 0.0}, "inbound_nodes": [["block_6_expand_BN", 0, 0, {}]]}, {"name": "block_6_pad", "class_name": "ZeroPadding2D", "config": {"name": "block_6_pad", "trainable": true, "dtype": "float32", "padding": [[0, 1], [0, 1]], "data_format": "channels_last"}, "inbound_nodes": [["block_6_expand_relu", 0, 0, {}]]}, {"name": "block_6_depthwise", "class_name": "DepthwiseConv2D", "config": {"name": "block_6_depthwise", "trainable": true, "dtype": "float32", "kernel_size": [3, 3], "strides": [2, 2], "padding": "valid", "data_format": "channels_last", "dilation_rate": [1, 1], "activation": "linear", "use_bias": false, "bias_initializer": {"class_name": "Zeros", "config": {"dtype": "float32"}}, "bias_regularizer": null, "activity_regularizer": null, "bias_constraint": null, "depth_multiplier": 1, "depthwise_initializer": {"class_name": "GlorotUniform", "config": {"seed": null, "dtype": "float32"}}, "depthwise_regularizer": null, "depthwise_constraint": null}, "inbound_nodes": [["block_6_pad", 0, 0, {}]]}, {"name": "block_6_depthwise_BN", "class_name": "BatchNormalizationV1", "config": {"name": "block_6_depthwise_BN", "trainable": true, "dtype": "float32", "axis": [3], "momentum": 0.999, "epsilon": 0.001, "center": true, "scale": true, "beta_initializer": {"class_name": "Zeros", "config": {"dtype": "float32"}}, "gamma_initializer": {"class_name": "Ones", "config": {"dtype": "float32"}}, "moving_mean_initializer": {"class_name": "Zeros", "config": {"dtype": "float32"}}, "moving_variance_initializer": {"class_name": "Ones", "config": {"dtype": "float32"}}, "beta_regularizer": null, "gamma_regularizer": null, "beta_constraint": null, "gamma_constraint": null}, "inbound_nodes": [["block_6_depthwise", 0, 0, {}]]}, {"name": "block_6_depthwise_relu", "class_name": "ReLU", "config": {"name": "block_6_depthwise_relu", "trainable": true, "dtype": "float32", "max_value": 6.0, "negative_slope": 0.0, "threshold": 0.0}, "inbound_nodes": [["block_6_depthwise_BN", 0, 0, {}]]}, {"name": "block_6_project", "class_name": "Conv2D", "config": {"name": "block_6_project", "trainable": true, "dtype": "float32", "filters": 32, "kernel_size": [1, 1], "strides": [1, 1], "padding": "same", "data_format": "channels_last", "dilation_rate": [1, 1], "activation": "linear", "use_bias": false, "kernel_initializer": {"class_name": "GlorotUniform", "config": {"seed": null, "dtype": "float32"}}, "bias_initializer": {"class_name": "Zeros", "config": {"dtype": "float32"}}, "kernel_regularizer": null, "bias_regularizer": null, "activity_regularizer": null, "kernel_constraint": null, "bias_constraint": null}, "inbound_nodes": [["block_6_depthwise_relu", 0, 0, {}]]}, {"name": "block_6_project_BN", "class_name": "BatchNormalizationV1", "config": {"name": "block_6_project_BN", "trainable": true, "dtype": "float32", "axis": [3], "momentum": 0.999, "epsilon": 0.001, "center": true, "scale": true, "beta_initializer": {"class_name": "Zeros", "config": {"dtype": "float32"}}, "gamma_initializer": {"class_name": "Ones", "config": {"dtype": "float32"}}, "moving_mean_initializer": {"class_name": "Zeros", "config": {"dtype": "float32"}}, "moving_variance_initializer": {"class_name": "Ones", "config": {"dtype": "float32"}}, "beta_regularizer": null, "gamma_regularizer": null, "beta_constraint": null, "gamma_constraint": null}, "inbound_nodes": [["block_6_project", 0, 0, {}]]}, {"name": "block_7_expand", "class_name": "Conv2D", "config": {"name": "block_7_expand", "trainable": true, "dtype": "float32", "filters": 192, "kernel_size": [1, 1], "strides": [1, 1], "padding": "same", "data_format": "channels_last", "dilation_rate": [1, 1], "activation": "linear", "use_bias": false, "kernel_initializer": {"class_name": "GlorotUniform", "config": {"seed": null, "dtype": "float32"}}, "bias_initializer": {"class_name": "Zeros", "config": {"dtype": "float32"}}, "kernel_regularizer": null, "bias_regularizer": null, "activity_regularizer": null, "kernel_constraint": null, "bias_constraint": null}, "inbound_nodes": [["block_6_project_BN", 0, 0, {}]]}, {"name": "block_7_expand_BN", "class_name": "BatchNormalizationV1", "config": {"name": "block_7_expand_BN", "trainable": true, "dtype": "float32", "axis": [3], "momentum": 0.999, "epsilon": 0.001, "center": true, "scale": true, "beta_initializer": {"class_name": "Zeros", "config": {"dtype": "float32"}}, "gamma_initializer": {"class_name": "Ones", "config": {"dtype": "float32"}}, "moving_mean_initializer": {"class_name": "Zeros", "config": {"dtype": "float32"}}, "moving_variance_initializer": {"class_name": "Ones", "config": {"dtype": "float32"}}, "beta_regularizer": null, "gamma_regularizer": null, "beta_constraint": null, "gamma_constraint": null}, "inbound_nodes": [["block_7_expand", 0, 0, {}]]}, {"name": "block_7_expand_relu", "class_name": "ReLU", "config": {"name": "block_7_expand_relu", "trainable": true, "dtype": "float32", "max_value": 6.0, "negative_slope": 0.0, "threshold": 0.0}, "inbound_nodes": [["block_7_expand_BN", 0, 0, {}]]}, {"name": "block_7_depthwise", "class_name": "DepthwiseConv2D", "config": {"name": "block_7_depthwise", "trainable": true, "dtype": "float32", "kernel_size": [3, 3], "strides": [1, 1], "padding": "same", "data_format": "channels_last", "dilation_rate": [1, 1], "activation": "linear", "use_bias": false, "bias_initializer": {"class_name": "Zeros", "config": {"dtype": "float32"}}, "bias_regularizer": null, "activity_regularizer": null, "bias_constraint": null, "depth_multiplier": 1, "depthwise_initializer": {"class_name": "GlorotUniform", "config": {"seed": null, "dtype": "float32"}}, "depthwise_regularizer": null, "depthwise_constraint": null}, "inbound_nodes": [["block_7_expand_relu", 0, 0, {}]]}, {"name": "block_7_depthwise_BN", "class_name": "BatchNormalizationV1", "config": {"name": "block_7_depthwise_BN", "trainable": true, "dtype": "float32", "axis": [3], "momentum": 0.999, "epsilon": 0.001, "center": true, "scale": true, "beta_initializer": {"class_name": "Zeros", "config": {"dtype": "float32"}}, "gamma_initializer": {"class_name": "Ones", "config": {"dtype": "float32"}}, "moving_mean_initializer": {"class_name": "Zeros", "config": {"dtype": "float32"}}, "moving_variance_initializer": {"class_name": "Ones", "config": {"dtype": "float32"}}, "beta_regularizer": null, "gamma_regularizer": null, "beta_constraint": null, "gamma_constraint": null}, "inbound_nodes": [["block_7_depthwise", 0, 0, {}]]}, {"name": "block_7_depthwise_relu", "class_name": "ReLU", "config": {"name": "block_7_depthwise_relu", "trainable": true, "dtype": "float32", "max_value": 6.0, "negative_slope": 0.0, "threshold": 0.0}, "inbound_nodes": [["block_7_depthwise_BN", 0, 0, {}]]}, {"name": "block_7_project", "class_name": "Conv2D", "config": {"name": "block_7_project", "trainable": true, "dtype": "float32", "filters": 32, "kernel_size": [1, 1], "strides": [1, 1], "padding": "same", "data_format": "channels_last", "dilation_rate": [1, 1], "activation": "linear", "use_bias": false, "kernel_initializer": {"class_name": "GlorotUniform", "config": {"seed": null, "dtype": "float32"}}, "bias_initializer": {"class_name": "Zeros", "config": {"dtype": "float32"}}, "kernel_regularizer": null, "bias_regularizer": null, "activity_regularizer": null, "kernel_constraint": null, "bias_constraint": null}, "inbound_nodes": [["block_7_depthwise_relu", 0, 0, {}]]}, {"name": "block_7_project_BN", "class_name": "BatchNormalizationV1", "config": {"name": "block_7_project_BN", "trainable": true, "dtype": "float32", "axis": [3], "momentum": 0.999, "epsilon": 0.001, "center": true, "scale": true, "beta_initializer": {"class_name": "Zeros", "config": {"dtype": "float32"}}, "gamma_initializer": {"class_name": "Ones", "config": {"dtype": "float32"}}, "moving_mean_initializer": {"class_name": "Zeros", "config": {"dtype": "float32"}}, "moving_variance_initializer": {"class_name": "Ones", "config": {"dtype": "float32"}}, "beta_regularizer": null, "gamma_regularizer": null, "beta_constraint": null, "gamma_constraint": null}, "inbound_nodes": [["block_7_project", 0, 0, {}]]}, {"name": "block_7_add", "class_name": "Add", "config": {"name": "block_7_add", "trainable": true, "dtype": "float32"}, "inbound_nodes": [[["block_6_project_BN", 0, 0, {}], ["block_7_project_BN", 0, 0, {}]]]}, {"name": "block_8_expand", "class_name": "Conv2D", "config": {"name": "block_8_expand", "trainable": true, "dtype": "float32", "filters": 192, "kernel_size": [1, 1], "strides": [1, 1], "padding": "same", "data_format": "channels_last", "dilation_rate": [1, 1], "activation": "linear", "use_bias": false, "kernel_initializer": {"class_name": "GlorotUniform", "config": {"seed": null, "dtype": "float32"}}, "bias_initializer": {"class_name": "Zeros", "config": {"dtype": "float32"}}, "kernel_regularizer": null, "bias_regularizer": null, "activity_regularizer": null, "kernel_constraint": null, "bias_constraint": null}, "inbound_nodes": [["block_7_add", 0, 0, {}]]}, {"name": "block_8_expand_BN", "class_name": "BatchNormalizationV1", "config": {"name": "block_8_expand_BN", "trainable": true, "dtype": "float32", "axis": [3], "momentum": 0.999, "epsilon": 0.001, "center": true, "scale": true, "beta_initializer": {"class_name": "Zeros", "config": {"dtype": "float32"}}, "gamma_initializer": {"class_name": "Ones", "config": {"dtype": "float32"}}, "moving_mean_initializer": {"class_name": "Zeros", "config": {"dtype": "float32"}}, "moving_variance_initializer": {"class_name": "Ones", "config": {"dtype": "float32"}}, "beta_regularizer": null, "gamma_regularizer": null, "beta_constraint": null, "gamma_constraint": null}, "inbound_nodes": [["block_8_expand", 0, 0, {}]]}, {"name": "block_8_expand_relu", "class_name": "ReLU", "config": {"name": "block_8_expand_relu", "trainable": true, "dtype": "float32", "max_value": 6.0, "negative_slope": 0.0, "threshold": 0.0}, "inbound_nodes": [["block_8_expand_BN", 0, 0, {}]]}, {"name": "block_8_depthwise", "class_name": "DepthwiseConv2D", "config": {"name": "block_8_depthwise", "trainable": true, "dtype": "float32", "kernel_size": [3, 3], "strides": [1, 1], "padding": "same", "data_format": "channels_last", "dilation_rate": [1, 1], "activation": "linear", "use_bias": false, "bias_initializer": {"class_name": "Zeros", "config": {"dtype": "float32"}}, "bias_regularizer": null, "activity_regularizer": null, "bias_constraint": null, "depth_multiplier": 1, "depthwise_initializer": {"class_name": "GlorotUniform", "config": {"seed": null, "dtype": "float32"}}, "depthwise_regularizer": null, "depthwise_constraint": null}, "inbound_nodes": [["block_8_expand_relu", 0, 0, {}]]}, {"name": "block_8_depthwise_BN", "class_name": "BatchNormalizationV1", "config": {"name": "block_8_depthwise_BN", "trainable": true, "dtype": "float32", "axis": [3], "momentum": 0.999, "epsilon": 0.001, "center": true, "scale": true, "beta_initializer": {"class_name": "Zeros", "config": {"dtype": "float32"}}, "gamma_initializer": {"class_name": "Ones", "config": {"dtype": "float32"}}, "moving_mean_initializer": {"class_name": "Zeros", "config": {"dtype": "float32"}}, "moving_variance_initializer": {"class_name": "Ones", "config": {"dtype": "float32"}}, "beta_regularizer": null, "gamma_regularizer": null, "beta_constraint": null, "gamma_constraint": null}, "inbound_nodes": [["block_8_depthwise", 0, 0, {}]]}, {"name": "block_8_depthwise_relu", "class_name": "ReLU", "config": {"name": "block_8_depthwise_relu", "trainable": true, "dtype": "float32", "max_value": 6.0, "negative_slope": 0.0, "threshold": 0.0}, "inbound_nodes": [["block_8_depthwise_BN", 0, 0, {}]]}, {"name": "block_8_project", "class_name": "Conv2D", "config": {"name": "block_8_project", "trainable": true, "dtype": "float32", "filters": 32, "kernel_size": [1, 1], "strides": [1, 1], "padding": "same", "data_format": "channels_last", "dilation_rate": [1, 1], "activation": "linear", "use_bias": false, "kernel_initializer": {"class_name": "GlorotUniform", "config": {"seed": null, "dtype": "float32"}}, "bias_initializer": {"class_name": "Zeros", "config": {"dtype": "float32"}}, "kernel_regularizer": null, "bias_regularizer": null, "activity_regularizer": null, "kernel_constraint": null, "bias_constraint": null}, "inbound_nodes": [["block_8_depthwise_relu", 0, 0, {}]]}, {"name": "block_8_project_BN", "class_name": "BatchNormalizationV1", "config": {"name": "block_8_project_BN", "trainable": true, "dtype": "float32", "axis": [3], "momentum": 0.999, "epsilon": 0.001, "center": true, "scale": true, "beta_initializer": {"class_name": "Zeros", "config": {"dtype": "float32"}}, "gamma_initializer": {"class_name": "Ones", "config": {"dtype": "float32"}}, "moving_mean_initializer": {"class_name": "Zeros", "config": {"dtype": "float32"}}, "moving_variance_initializer": {"class_name": "Ones", "config": {"dtype": "float32"}}, "beta_regularizer": null, "gamma_regularizer": null, "beta_constraint": null, "gamma_constraint": null}, "inbound_nodes": [["block_8_project", 0, 0, {}]]}, {"name": "block_8_add", "class_name": "Add", "config": {"name": "block_8_add", "trainable": true, "dtype": "float32"}, "inbound_nodes": [[["block_7_add", 0, 0, {}], ["block_8_project_BN", 0, 0, {}]]]}, {"name": "block_9_expand", "class_name": "Conv2D", "config": {"name": "block_9_expand", "trainable": true, "dtype": "float32", "filters": 192, "kernel_size": [1, 1], "strides": [1, 1], "padding": "same", "data_format": "channels_last", "dilation_rate": [1, 1], "activation": "linear", "use_bias": false, "kernel_initializer": {"class_name": "GlorotUniform", "config": {"seed": null, "dtype": "float32"}}, "bias_initializer": {"class_name": "Zeros", "config": {"dtype": "float32"}}, "kernel_regularizer": null, "bias_regularizer": null, "activity_regularizer": null, "kernel_constraint": null, "bias_constraint": null}, "inbound_nodes": [["block_8_add", 0, 0, {}]]}, {"name": "block_9_expand_BN", "class_name": "BatchNormalizationV1", "config": {"name": "block_9_expand_BN", "trainable": true, "dtype": "float32", "axis": [3], "momentum": 0.999, "epsilon": 0.001, "center": true, "scale": true, "beta_initializer": {"class_name": "Zeros", "config": {"dtype": "float32"}}, "gamma_initializer": {"class_name": "Ones", "config": {"dtype": "float32"}}, "moving_mean_initializer": {"class_name": "Zeros", "config": {"dtype": "float32"}}, "moving_variance_initializer": {"class_name": "Ones", "config": {"dtype": "float32"}}, "beta_regularizer": null, "gamma_regularizer": null, "beta_constraint": null, "gamma_constraint": null}, "inbound_nodes": [["block_9_expand", 0, 0, {}]]}, {"name": "block_9_expand_relu", "class_name": "ReLU", "config": {"name": "block_9_expand_relu", "trainable": true, "dtype": "float32", "max_value": 6.0, "negative_slope": 0.0, "threshold": 0.0}, "inbound_nodes": [["block_9_expand_BN", 0, 0, {}]]}, {"name": "block_9_depthwise", "class_name": "DepthwiseConv2D", "config": {"name": "block_9_depthwise", "trainable": true, "dtype": "float32", "kernel_size": [3, 3], "strides": [1, 1], "padding": "same", "data_format": "channels_last", "dilation_rate": [1, 1], "activation": "linear", "use_bias": false, "bias_initializer": {"class_name": "Zeros", "config": {"dtype": "float32"}}, "bias_regularizer": null, "activity_regularizer": null, "bias_constraint": null, "depth_multiplier": 1, "depthwise_initializer": {"class_name": "GlorotUniform", "config": {"seed": null, "dtype": "float32"}}, "depthwise_regularizer": null, "depthwise_constraint": null}, "inbound_nodes": [["block_9_expand_relu", 0, 0, {}]]}, {"name": "block_9_depthwise_BN", "class_name": "BatchNormalizationV1", "config": {"name": "block_9_depthwise_BN", "trainable": true, "dtype": "float32", "axis": [3], "momentum": 0.999, "epsilon": 0.001, "center": true, "scale": true, "beta_initializer": {"class_name": "Zeros", "config": {"dtype": "float32"}}, "gamma_initializer": {"class_name": "Ones", "config": {"dtype": "float32"}}, "moving_mean_initializer": {"class_name": "Zeros", "config": {"dtype": "float32"}}, "moving_variance_initializer": {"class_name": "Ones", "config": {"dtype": "float32"}}, "beta_regularizer": null, "gamma_regularizer": null, "beta_constraint": null, "gamma_constraint": null}, "inbound_nodes": [["block_9_depthwise", 0, 0, {}]]}, {"name": "block_9_depthwise_relu", "class_name": "ReLU", "config": {"name": "block_9_depthwise_relu", "trainable": true, "dtype": "float32", "max_value": 6.0, "negative_slope": 0.0, "threshold": 0.0}, "inbound_nodes": [["block_9_depthwise_BN", 0, 0, {}]]}, {"name": "block_9_project", "class_name": "Conv2D", "config": {"name": "block_9_project", "trainable": true, "dtype": "float32", "filters": 32, "kernel_size": [1, 1], "strides": [1, 1], "padding": "same", "data_format": "channels_last", "dilation_rate": [1, 1], "activation": "linear", "use_bias": false, "kernel_initializer": {"class_name": "GlorotUniform", "config": {"seed": null, "dtype": "float32"}}, "bias_initializer": {"class_name": "Zeros", "config": {"dtype": "float32"}}, "kernel_regularizer": null, "bias_regularizer": null, "activity_regularizer": null, "kernel_constraint": null, "bias_constraint": null}, "inbound_nodes": [["block_9_depthwise_relu", 0, 0, {}]]}, {"name": "block_9_project_BN", "class_name": "BatchNormalizationV1", "config": {"name": "block_9_project_BN", "trainable": true, "dtype": "float32", "axis": [3], "momentum": 0.999, "epsilon": 0.001, "center": true, "scale": true, "beta_initializer": {"class_name": "Zeros", "config": {"dtype": "float32"}}, "gamma_initializer": {"class_name": "Ones", "config": {"dtype": "float32"}}, "moving_mean_initializer": {"class_name": "Zeros", "config": {"dtype": "float32"}}, "moving_variance_initializer": {"class_name": "Ones", "config": {"dtype": "float32"}}, "beta_regularizer": null, "gamma_regularizer": null, "beta_constraint": null, "gamma_constraint": null}, "inbound_nodes": [["block_9_project", 0, 0, {}]]}, {"name": "block_9_add", "class_name": "Add", "config": {"name": "block_9_add", "trainable": true, "dtype": "float32"}, "inbound_nodes": [[["block_8_add", 0, 0, {}], ["block_9_project_BN", 0, 0, {}]]]}, {"name": "block_10_expand", "class_name": "Conv2D", "config": {"name": "block_10_expand", "trainable": true, "dtype": "float32", "filters": 192, "kernel_size": [1, 1], "strides": [1, 1], "padding": "same", "data_format": "channels_last", "dilation_rate": [1, 1], "activation": "linear", "use_bias": false, "kernel_initializer": {"class_name": "GlorotUniform", "config": {"seed": null, "dtype": "float32"}}, "bias_initializer": {"class_name": "Zeros", "config": {"dtype": "float32"}}, "kernel_regularizer": null, "bias_regularizer": null, "activity_regularizer": null, "kernel_constraint": null, "bias_constraint": null}, "inbound_nodes": [["block_9_add", 0, 0, {}]]}, {"name": "block_10_expand_BN", "class_name": "BatchNormalizationV1", "config": {"name": "block_10_expand_BN", "trainable": true, "dtype": "float32", "axis": [3], "momentum": 0.999, "epsilon": 0.001, "center": true, "scale": true, "beta_initializer": {"class_name": "Zeros", "config": {"dtype": "float32"}}, "gamma_initializer": {"class_name": "Ones", "config": {"dtype": "float32"}}, "moving_mean_initializer": {"class_name": "Zeros", "config": {"dtype": "float32"}}, "moving_variance_initializer": {"class_name": "Ones", "config": {"dtype": "float32"}}, "beta_regularizer": null, "gamma_regularizer": null, "beta_constraint": null, "gamma_constraint": null}, "inbound_nodes": [["block_10_expand", 0, 0, {}]]}, {"name": "block_10_expand_relu", "class_name": "ReLU", "config": {"name": "block_10_expand_relu", "trainable": true, "dtype": "float32", "max_value": 6.0, "negative_slope": 0.0, "threshold": 0.0}, "inbound_nodes": [["block_10_expand_BN", 0, 0, {}]]}, {"name": "block_10_depthwise", "class_name": "DepthwiseConv2D", "config": {"name": "block_10_depthwise", "trainable": true, "dtype": "float32", "kernel_size": [3, 3], "strides": [1, 1], "padding": "same", "data_format": "channels_last", "dilation_rate": [1, 1], "activation": "linear", "use_bias": false, "bias_initializer": {"class_name": "Zeros", "config": {"dtype": "float32"}}, "bias_regularizer": null, "activity_regularizer": null, "bias_constraint": null, "depth_multiplier": 1, "depthwise_initializer": {"class_name": "GlorotUniform", "config": {"seed": null, "dtype": "float32"}}, "depthwise_regularizer": null, "depthwise_constraint": null}, "inbound_nodes": [["block_10_expand_relu", 0, 0, {}]]}, {"name": "block_10_depthwise_BN", "class_name": "BatchNormalizationV1", "config": {"name": "block_10_depthwise_BN", "trainable": true, "dtype": "float32", "axis": [3], "momentum": 0.999, "epsilon": 0.001, "center": true, "scale": true, "beta_initializer": {"class_name": "Zeros", "config": {"dtype": "float32"}}, "gamma_initializer": {"class_name": "Ones", "config": {"dtype": "float32"}}, "moving_mean_initializer": {"class_name": "Zeros", "config": {"dtype": "float32"}}, "moving_variance_initializer": {"class_name": "Ones", "config": {"dtype": "float32"}}, "beta_regularizer": null, "gamma_regularizer": null, "beta_constraint": null, "gamma_constraint": null}, "inbound_nodes": [["block_10_depthwise", 0, 0, {}]]}, {"name": "block_10_depthwise_relu", "class_name": "ReLU", "config": {"name": "block_10_depthwise_relu", "trainable": true, "dtype": "float32", "max_value": 6.0, "negative_slope": 0.0, "threshold": 0.0}, "inbound_nodes": [["block_10_depthwise_BN", 0, 0, {}]]}, {"name": "block_10_project", "class_name": "Conv2D", "config": {"name": "block_10_project", "trainable": true, "dtype": "float32", "filters": 48, "kernel_size": [1, 1], "strides": [1, 1], "padding": "same", "data_format": "channels_last", "dilation_rate": [1, 1], "activation": "linear", "use_bias": false, "kernel_initializer": {"class_name": "GlorotUniform", "config": {"seed": null, "dtype": "float32"}}, "bias_initializer": {"class_name": "Zeros", "config": {"dtype": "float32"}}, "kernel_regularizer": null, "bias_regularizer": null, "activity_regularizer": null, "kernel_constraint": null, "bias_constraint": null}, "inbound_nodes": [["block_10_depthwise_relu", 0, 0, {}]]}, {"name": "block_10_project_BN", "class_name": "BatchNormalizationV1", "config": {"name": "block_10_project_BN", "trainable": true, "dtype": "float32", "axis": [3], "momentum": 0.999, "epsilon": 0.001, "center": true, "scale": true, "beta_initializer": {"class_name": "Zeros", "config": {"dtype": "float32"}}, "gamma_initializer": {"class_name": "Ones", "config": {"dtype": "float32"}}, "moving_mean_initializer": {"class_name": "Zeros", "config": {"dtype": "float32"}}, "moving_variance_initializer": {"class_name": "Ones", "config": {"dtype": "float32"}}, "beta_regularizer": null, "gamma_regularizer": null, "beta_constraint": null, "gamma_constraint": null}, "inbound_nodes": [["block_10_project", 0, 0, {}]]}, {"name": "block_11_expand", "class_name": "Conv2D", "config": {"name": "block_11_expand", "trainable": true, "dtype": "float32", "filters": 288, "kernel_size": [1, 1], "strides": [1, 1], "padding": "same", "data_format": "channels_last", "dilation_rate": [1, 1], "activation": "linear", "use_bias": false, "kernel_initializer": {"class_name": "GlorotUniform", "config": {"seed": null, "dtype": "float32"}}, "bias_initializer": {"class_name": "Zeros", "config": {"dtype": "float32"}}, "kernel_regularizer": null, "bias_regularizer": null, "activity_regularizer": null, "kernel_constraint": null, "bias_constraint": null}, "inbound_nodes": [["block_10_project_BN", 0, 0, {}]]}, {"name": "block_11_expand_BN", "class_name": "BatchNormalizationV1", "config": {"name": "block_11_expand_BN", "trainable": true, "dtype": "float32", "axis": [3], "momentum": 0.999, "epsilon": 0.001, "center": true, "scale": true, "beta_initializer": {"class_name": "Zeros", "config": {"dtype": "float32"}}, "gamma_initializer": {"class_name": "Ones", "config": {"dtype": "float32"}}, "moving_mean_initializer": {"class_name": "Zeros", "config": {"dtype": "float32"}}, "moving_variance_initializer": {"class_name": "Ones", "config": {"dtype": "float32"}}, "beta_regularizer": null, "gamma_regularizer": null, "beta_constraint": null, "gamma_constraint": null}, "inbound_nodes": [["block_11_expand", 0, 0, {}]]}, {"name": "block_11_expand_relu", "class_name": "ReLU", "config": {"name": "block_11_expand_relu", "trainable": true, "dtype": "float32", "max_value": 6.0, "negative_slope": 0.0, "threshold": 0.0}, "inbound_nodes": [["block_11_expand_BN", 0, 0, {}]]}, {"name": "block_11_depthwise", "class_name": "DepthwiseConv2D", "config": {"name": "block_11_depthwise", "trainable": true, "dtype": "float32", "kernel_size": [3, 3], "strides": [1, 1], "padding": "same", "data_format": "channels_last", "dilation_rate": [1, 1], "activation": "linear", "use_bias": false, "bias_initializer": {"class_name": "Zeros", "config": {"dtype": "float32"}}, "bias_regularizer": null, "activity_regularizer": null, "bias_constraint": null, "depth_multiplier": 1, "depthwise_initializer": {"class_name": "GlorotUniform", "config": {"seed": null, "dtype": "float32"}}, "depthwise_regularizer": null, "depthwise_constraint": null}, "inbound_nodes": [["block_11_expand_relu", 0, 0, {}]]}, {"name": "block_11_depthwise_BN", "class_name": "BatchNormalizationV1", "config": {"name": "block_11_depthwise_BN", "trainable": true, "dtype": "float32", "axis": [3], "momentum": 0.999, "epsilon": 0.001, "center": true, "scale": true, "beta_initializer": {"class_name": "Zeros", "config": {"dtype": "float32"}}, "gamma_initializer": {"class_name": "Ones", "config": {"dtype": "float32"}}, "moving_mean_initializer": {"class_name": "Zeros", "config": {"dtype": "float32"}}, "moving_variance_initializer": {"class_name": "Ones", "config": {"dtype": "float32"}}, "beta_regularizer": null, "gamma_regularizer": null, "beta_constraint": null, "gamma_constraint": null}, "inbound_nodes": [["block_11_depthwise", 0, 0, {}]]}, {"name": "block_11_depthwise_relu", "class_name": "ReLU", "config": {"name": "block_11_depthwise_relu", "trainable": true, "dtype": "float32", "max_value": 6.0, "negative_slope": 0.0, "threshold": 0.0}, "inbound_nodes": [["block_11_depthwise_BN", 0, 0, {}]]}, {"name": "block_11_project", "class_name": "Conv2D", "config": {"name": "block_11_project", "trainable": true, "dtype": "float32", "filters": 48, "kernel_size": [1, 1], "strides": [1, 1], "padding": "same", "data_format": "channels_last", "dilation_rate": [1, 1], "activation": "linear", "use_bias": false, "kernel_initializer": {"class_name": "GlorotUniform", "config": {"seed": null, "dtype": "float32"}}, "bias_initializer": {"class_name": "Zeros", "config": {"dtype": "float32"}}, "kernel_regularizer": null, "bias_regularizer": null, "activity_regularizer": null, "kernel_constraint": null, "bias_constraint": null}, "inbound_nodes": [["block_11_depthwise_relu", 0, 0, {}]]}, {"name": "block_11_project_BN", "class_name": "BatchNormalizationV1", "config": {"name": "block_11_project_BN", "trainable": true, "dtype": "float32", "axis": [3], "momentum": 0.999, "epsilon": 0.001, "center": true, "scale": true, "beta_initializer": {"class_name": "Zeros", "config": {"dtype": "float32"}}, "gamma_initializer": {"class_name": "Ones", "config": {"dtype": "float32"}}, "moving_mean_initializer": {"class_name": "Zeros", "config": {"dtype": "float32"}}, "moving_variance_initializer": {"class_name": "Ones", "config": {"dtype": "float32"}}, "beta_regularizer": null, "gamma_regularizer": null, "beta_constraint": null, "gamma_constraint": null}, "inbound_nodes": [["block_11_project", 0, 0, {}]]}, {"name": "block_11_add", "class_name": "Add", "config": {"name": "block_11_add", "trainable": true, "dtype": "float32"}, "inbound_nodes": [[["block_10_project_BN", 0, 0, {}], ["block_11_project_BN", 0, 0, {}]]]}, {"name": "block_12_expand", "class_name": "Conv2D", "config": {"name": "block_12_expand", "trainable": true, "dtype": "float32", "filters": 288, "kernel_size": [1, 1], "strides": [1, 1], "padding": "same", "data_format": "channels_last", "dilation_rate": [1, 1], "activation": "linear", "use_bias": false, "kernel_initializer": {"class_name": "GlorotUniform", "config": {"seed": null, "dtype": "float32"}}, "bias_initializer": {"class_name": "Zeros", "config": {"dtype": "float32"}}, "kernel_regularizer": null, "bias_regularizer": null, "activity_regularizer": null, "kernel_constraint": null, "bias_constraint": null}, "inbound_nodes": [["block_11_add", 0, 0, {}]]}, {"name": "block_12_expand_BN", "class_name": "BatchNormalizationV1", "config": {"name": "block_12_expand_BN", "trainable": true, "dtype": "float32", "axis": [3], "momentum": 0.999, "epsilon": 0.001, "center": true, "scale": true, "beta_initializer": {"class_name": "Zeros", "config": {"dtype": "float32"}}, "gamma_initializer": {"class_name": "Ones", "config": {"dtype": "float32"}}, "moving_mean_initializer": {"class_name": "Zeros", "config": {"dtype": "float32"}}, "moving_variance_initializer": {"class_name": "Ones", "config": {"dtype": "float32"}}, "beta_regularizer": null, "gamma_regularizer": null, "beta_constraint": null, "gamma_constraint": null}, "inbound_nodes": [["block_12_expand", 0, 0, {}]]}, {"name": "block_12_expand_relu", "class_name": "ReLU", "config": {"name": "block_12_expand_relu", "trainable": true, "dtype": "float32", "max_value": 6.0, "negative_slope": 0.0, "threshold": 0.0}, "inbound_nodes": [["block_12_expand_BN", 0, 0, {}]]}, {"name": "block_12_depthwise", "class_name": "DepthwiseConv2D", "config": {"name": "block_12_depthwise", "trainable": true, "dtype": "float32", "kernel_size": [3, 3], "strides": [1, 1], "padding": "same", "data_format": "channels_last", "dilation_rate": [1, 1], "activation": "linear", "use_bias": false, "bias_initializer": {"class_name": "Zeros", "config": {"dtype": "float32"}}, "bias_regularizer": null, "activity_regularizer": null, "bias_constraint": null, "depth_multiplier": 1, "depthwise_initializer": {"class_name": "GlorotUniform", "config": {"seed": null, "dtype": "float32"}}, "depthwise_regularizer": null, "depthwise_constraint": null}, "inbound_nodes": [["block_12_expand_relu", 0, 0, {}]]}, {"name": "block_12_depthwise_BN", "class_name": "BatchNormalizationV1", "config": {"name": "block_12_depthwise_BN", "trainable": true, "dtype": "float32", "axis": [3], "momentum": 0.999, "epsilon": 0.001, "center": true, "scale": true, "beta_initializer": {"class_name": "Zeros", "config": {"dtype": "float32"}}, "gamma_initializer": {"class_name": "Ones", "config": {"dtype": "float32"}}, "moving_mean_initializer": {"class_name": "Zeros", "config": {"dtype": "float32"}}, "moving_variance_initializer": {"class_name": "Ones", "config": {"dtype": "float32"}}, "beta_regularizer": null, "gamma_regularizer": null, "beta_constraint": null, "gamma_constraint": null}, "inbound_nodes": [["block_12_depthwise", 0, 0, {}]]}, {"name": "block_12_depthwise_relu", "class_name": "ReLU", "config": {"name": "block_12_depthwise_relu", "trainable": true, "dtype": "float32", "max_value": 6.0, "negative_slope": 0.0, "threshold": 0.0}, "inbound_nodes": [["block_12_depthwise_BN", 0, 0, {}]]}, {"name": "block_12_project", "class_name": "Conv2D", "config": {"name": "block_12_project", "trainable": true, "dtype": "float32", "filters": 48, "kernel_size": [1, 1], "strides": [1, 1], "padding": "same", "data_format": "channels_last", "dilation_rate": [1, 1], "activation": "linear", "use_bias": false, "kernel_initializer": {"class_name": "GlorotUniform", "config": {"seed": null, "dtype": "float32"}}, "bias_initializer": {"class_name": "Zeros", "config": {"dtype": "float32"}}, "kernel_regularizer": null, "bias_regularizer": null, "activity_regularizer": null, "kernel_constraint": null, "bias_constraint": null}, "inbound_nodes": [["block_12_depthwise_relu", 0, 0, {}]]}, {"name": "block_12_project_BN", "class_name": "BatchNormalizationV1", "config": {"name": "block_12_project_BN", "trainable": true, "dtype": "float32", "axis": [3], "momentum": 0.999, "epsilon": 0.001, "center": true, "scale": true, "beta_initializer": {"class_name": "Zeros", "config": {"dtype": "float32"}}, "gamma_initializer": {"class_name": "Ones", "config": {"dtype": "float32"}}, "moving_mean_initializer": {"class_name": "Zeros", "config": {"dtype": "float32"}}, "moving_variance_initializer": {"class_name": "Ones", "config": {"dtype": "float32"}}, "beta_regularizer": null, "gamma_regularizer": null, "beta_constraint": null, "gamma_constraint": null}, "inbound_nodes": [["block_12_project", 0, 0, {}]]}, {"name": "block_12_add", "class_name": "Add", "config": {"name": "block_12_add", "trainable": true, "dtype": "float32"}, "inbound_nodes": [[["block_11_add", 0, 0, {}], ["block_12_project_BN", 0, 0, {}]]]}, {"name": "block_13_expand", "class_name": "Conv2D", "config": {"name": "block_13_expand", "trainable": true, "dtype": "float32", "filters": 288, "kernel_size": [1, 1], "strides": [1, 1], "padding": "same", "data_format": "channels_last", "dilation_rate": [1, 1], "activation": "linear", "use_bias": false, "kernel_initializer": {"class_name": "GlorotUniform", "config": {"seed": null, "dtype": "float32"}}, "bias_initializer": {"class_name": "Zeros", "config": {"dtype": "float32"}}, "kernel_regularizer": null, "bias_regularizer": null, "activity_regularizer": null, "kernel_constraint": null, "bias_constraint": null}, "inbound_nodes": [["block_12_add", 0, 0, {}]]}, {"name": "block_13_expand_BN", "class_name": "BatchNormalizationV1", "config": {"name": "block_13_expand_BN", "trainable": true, "dtype": "float32", "axis": [3], "momentum": 0.999, "epsilon": 0.001, "center": true, "scale": true, "beta_initializer": {"class_name": "Zeros", "config": {"dtype": "float32"}}, "gamma_initializer": {"class_name": "Ones", "config": {"dtype": "float32"}}, "moving_mean_initializer": {"class_name": "Zeros", "config": {"dtype": "float32"}}, "moving_variance_initializer": {"class_name": "Ones", "config": {"dtype": "float32"}}, "beta_regularizer": null, "gamma_regularizer": null, "beta_constraint": null, "gamma_constraint": null}, "inbound_nodes": [["block_13_expand", 0, 0, {}]]}, {"name": "block_13_expand_relu", "class_name": "ReLU", "config": {"name": "block_13_expand_relu", "trainable": true, "dtype": "float32", "max_value": 6.0, "negative_slope": 0.0, "threshold": 0.0}, "inbound_nodes": [["block_13_expand_BN", 0, 0, {}]]}, {"name": "block_13_pad", "class_name": "ZeroPadding2D", "config": {"name": "block_13_pad", "trainable": true, "dtype": "float32", "padding": [[0, 1], [0, 1]], "data_format": "channels_last"}, "inbound_nodes": [["block_13_expand_relu", 0, 0, {}]]}, {"name": "block_13_depthwise", "class_name": "DepthwiseConv2D", "config": {"name": "block_13_depthwise", "trainable": true, "dtype": "float32", "kernel_size": [3, 3], "strides": [2, 2], "padding": "valid", "data_format": "channels_last", "dilation_rate": [1, 1], "activation": "linear", "use_bias": false, "bias_initializer": {"class_name": "Zeros", "config": {"dtype": "float32"}}, "bias_regularizer": null, "activity_regularizer": null, "bias_constraint": null, "depth_multiplier": 1, "depthwise_initializer": {"class_name": "GlorotUniform", "config": {"seed": null, "dtype": "float32"}}, "depthwise_regularizer": null, "depthwise_constraint": null}, "inbound_nodes": [["block_13_pad", 0, 0, {}]]}, {"name": "block_13_depthwise_BN", "class_name": "BatchNormalizationV1", "config": {"name": "block_13_depthwise_BN", "trainable": true, "dtype": "float32", "axis": [3], "momentum": 0.999, "epsilon": 0.001, "center": true, "scale": true, "beta_initializer": {"class_name": "Zeros", "config": {"dtype": "float32"}}, "gamma_initializer": {"class_name": "Ones", "config": {"dtype": "float32"}}, "moving_mean_initializer": {"class_name": "Zeros", "config": {"dtype": "float32"}}, "moving_variance_initializer": {"class_name": "Ones", "config": {"dtype": "float32"}}, "beta_regularizer": null, "gamma_regularizer": null, "beta_constraint": null, "gamma_constraint": null}, "inbound_nodes": [["block_13_depthwise", 0, 0, {}]]}, {"name": "block_13_depthwise_relu", "class_name": "ReLU", "config": {"name": "block_13_depthwise_relu", "trainable": true, "dtype": "float32", "max_value": 6.0, "negative_slope": 0.0, "threshold": 0.0}, "inbound_nodes": [["block_13_depthwise_BN", 0, 0, {}]]}, {"name": "block_13_project", "class_name": "Conv2D", "config": {"name": "block_13_project", "trainable": true, "dtype": "float32", "filters": 80, "kernel_size": [1, 1], "strides": [1, 1], "padding": "same", "data_format": "channels_last", "dilation_rate": [1, 1], "activation": "linear", "use_bias": false, "kernel_initializer": {"class_name": "GlorotUniform", "config": {"seed": null, "dtype": "float32"}}, "bias_initializer": {"class_name": "Zeros", "config": {"dtype": "float32"}}, "kernel_regularizer": null, "bias_regularizer": null, "activity_regularizer": null, "kernel_constraint": null, "bias_constraint": null}, "inbound_nodes": [["block_13_depthwise_relu", 0, 0, {}]]}, {"name": "block_13_project_BN", "class_name": "BatchNormalizationV1", "config": {"name": "block_13_project_BN", "trainable": true, "dtype": "float32", "axis": [3], "momentum": 0.999, "epsilon": 0.001, "center": true, "scale": true, "beta_initializer": {"class_name": "Zeros", "config": {"dtype": "float32"}}, "gamma_initializer": {"class_name": "Ones", "config": {"dtype": "float32"}}, "moving_mean_initializer": {"class_name": "Zeros", "config": {"dtype": "float32"}}, "moving_variance_initializer": {"class_name": "Ones", "config": {"dtype": "float32"}}, "beta_regularizer": null, "gamma_regularizer": null, "beta_constraint": null, "gamma_constraint": null}, "inbound_nodes": [["block_13_project", 0, 0, {}]]}, {"name": "block_14_expand", "class_name": "Conv2D", "config": {"name": "block_14_expand", "trainable": true, "dtype": "float32", "filters": 480, "kernel_size": [1, 1], "strides": [1, 1], "padding": "same", "data_format": "channels_last", "dilation_rate": [1, 1], "activation": "linear", "use_bias": false, "kernel_initializer": {"class_name": "GlorotUniform", "config": {"seed": null, "dtype": "float32"}}, "bias_initializer": {"class_name": "Zeros", "config": {"dtype": "float32"}}, "kernel_regularizer": null, "bias_regularizer": null, "activity_regularizer": null, "kernel_constraint": null, "bias_constraint": null}, "inbound_nodes": [["block_13_project_BN", 0, 0, {}]]}, {"name": "block_14_expand_BN", "class_name": "BatchNormalizationV1", "config": {"name": "block_14_expand_BN", "trainable": true, "dtype": "float32", "axis": [3], "momentum": 0.999, "epsilon": 0.001, "center": true, "scale": true, "beta_initializer": {"class_name": "Zeros", "config": {"dtype": "float32"}}, "gamma_initializer": {"class_name": "Ones", "config": {"dtype": "float32"}}, "moving_mean_initializer": {"class_name": "Zeros", "config": {"dtype": "float32"}}, "moving_variance_initializer": {"class_name": "Ones", "config": {"dtype": "float32"}}, "beta_regularizer": null, "gamma_regularizer": null, "beta_constraint": null, "gamma_constraint": null}, "inbound_nodes": [["block_14_expand", 0, 0, {}]]}, {"name": "block_14_expand_relu", "class_name": "ReLU", "config": {"name": "block_14_expand_relu", "trainable": true, "dtype": "float32", "max_value": 6.0, "negative_slope": 0.0, "threshold": 0.0}, "inbound_nodes": [["block_14_expand_BN", 0, 0, {}]]}, {"name": "block_14_depthwise", "class_name": "DepthwiseConv2D", "config": {"name": "block_14_depthwise", "trainable": true, "dtype": "float32", "kernel_size": [3, 3], "strides": [1, 1], "padding": "same", "data_format": "channels_last", "dilation_rate": [1, 1], "activation": "linear", "use_bias": false, "bias_initializer": {"class_name": "Zeros", "config": {"dtype": "float32"}}, "bias_regularizer": null, "activity_regularizer": null, "bias_constraint": null, "depth_multiplier": 1, "depthwise_initializer": {"class_name": "GlorotUniform", "config": {"seed": null, "dtype": "float32"}}, "depthwise_regularizer": null, "depthwise_constraint": null}, "inbound_nodes": [["block_14_expand_relu", 0, 0, {}]]}, {"name": "block_14_depthwise_BN", "class_name": "BatchNormalizationV1", "config": {"name": "block_14_depthwise_BN", "trainable": true, "dtype": "float32", "axis": [3], "momentum": 0.999, "epsilon": 0.001, "center": true, "scale": true, "beta_initializer": {"class_name": "Zeros", "config": {"dtype": "float32"}}, "gamma_initializer": {"class_name": "Ones", "config": {"dtype": "float32"}}, "moving_mean_initializer": {"class_name": "Zeros", "config": {"dtype": "float32"}}, "moving_variance_initializer": {"class_name": "Ones", "config": {"dtype": "float32"}}, "beta_regularizer": null, "gamma_regularizer": null, "beta_constraint": null, "gamma_constraint": null}, "inbound_nodes": [["block_14_depthwise", 0, 0, {}]]}, {"name": "block_14_depthwise_relu", "class_name": "ReLU", "config": {"name": "block_14_depthwise_relu", "trainable": true, "dtype": "float32", "max_value": 6.0, "negative_slope": 0.0, "threshold": 0.0}, "inbound_nodes": [["block_14_depthwise_BN", 0, 0, {}]]}, {"name": "block_14_project", "class_name": "Conv2D", "config": {"name": "block_14_project", "trainable": true, "dtype": "float32", "filters": 80, "kernel_size": [1, 1], "strides": [1, 1], "padding": "same", "data_format": "channels_last", "dilation_rate": [1, 1], "activation": "linear", "use_bias": false, "kernel_initializer": {"class_name": "GlorotUniform", "config": {"seed": null, "dtype": "float32"}}, "bias_initializer": {"class_name": "Zeros", "config": {"dtype": "float32"}}, "kernel_regularizer": null, "bias_regularizer": null, "activity_regularizer": null, "kernel_constraint": null, "bias_constraint": null}, "inbound_nodes": [["block_14_depthwise_relu", 0, 0, {}]]}, {"name": "block_14_project_BN", "class_name": "BatchNormalizationV1", "config": {"name": "block_14_project_BN", "trainable": true, "dtype": "float32", "axis": [3], "momentum": 0.999, "epsilon": 0.001, "center": true, "scale": true, "beta_initializer": {"class_name": "Zeros", "config": {"dtype": "float32"}}, "gamma_initializer": {"class_name": "Ones", "config": {"dtype": "float32"}}, "moving_mean_initializer": {"class_name": "Zeros", "config": {"dtype": "float32"}}, "moving_variance_initializer": {"class_name": "Ones", "config": {"dtype": "float32"}}, "beta_regularizer": null, "gamma_regularizer": null, "beta_constraint": null, "gamma_constraint": null}, "inbound_nodes": [["block_14_project", 0, 0, {}]]}, {"name": "block_14_add", "class_name": "Add", "config": {"name": "block_14_add", "trainable": true, "dtype": "float32"}, "inbound_nodes": [[["block_13_project_BN", 0, 0, {}], ["block_14_project_BN", 0, 0, {}]]]}, {"name": "block_15_expand", "class_name": "Conv2D", "config": {"name": "block_15_expand", "trainable": true, "dtype": "float32", "filters": 480, "kernel_size": [1, 1], "strides": [1, 1], "padding": "same", "data_format": "channels_last", "dilation_rate": [1, 1], "activation": "linear", "use_bias": false, "kernel_initializer": {"class_name": "GlorotUniform", "config": {"seed": null, "dtype": "float32"}}, "bias_initializer": {"class_name": "Zeros", "config": {"dtype": "float32"}}, "kernel_regularizer": null, "bias_regularizer": null, "activity_regularizer": null, "kernel_constraint": null, "bias_constraint": null}, "inbound_nodes": [["block_14_add", 0, 0, {}]]}, {"name": "block_15_expand_BN", "class_name": "BatchNormalizationV1", "config": {"name": "block_15_expand_BN", "trainable": true, "dtype": "float32", "axis": [3], "momentum": 0.999, "epsilon": 0.001, "center": true, "scale": true, "beta_initializer": {"class_name": "Zeros", "config": {"dtype": "float32"}}, "gamma_initializer": {"class_name": "Ones", "config": {"dtype": "float32"}}, "moving_mean_initializer": {"class_name": "Zeros", "config": {"dtype": "float32"}}, "moving_variance_initializer": {"class_name": "Ones", "config": {"dtype": "float32"}}, "beta_regularizer": null, "gamma_regularizer": null, "beta_constraint": null, "gamma_constraint": null}, "inbound_nodes": [["block_15_expand", 0, 0, {}]]}, {"name": "block_15_expand_relu", "class_name": "ReLU", "config": {"name": "block_15_expand_relu", "trainable": true, "dtype": "float32", "max_value": 6.0, "negative_slope": 0.0, "threshold": 0.0}, "inbound_nodes": [["block_15_expand_BN", 0, 0, {}]]}, {"name": "block_15_depthwise", "class_name": "DepthwiseConv2D", "config": {"name": "block_15_depthwise", "trainable": true, "dtype": "float32", "kernel_size": [3, 3], "strides": [1, 1], "padding": "same", "data_format": "channels_last", "dilation_rate": [1, 1], "activation": "linear", "use_bias": false, "bias_initializer": {"class_name": "Zeros", "config": {"dtype": "float32"}}, "bias_regularizer": null, "activity_regularizer": null, "bias_constraint": null, "depth_multiplier": 1, "depthwise_initializer": {"class_name": "GlorotUniform", "config": {"seed": null, "dtype": "float32"}}, "depthwise_regularizer": null, "depthwise_constraint": null}, "inbound_nodes": [["block_15_expand_relu", 0, 0, {}]]}, {"name": "block_15_depthwise_BN", "class_name": "BatchNormalizationV1", "config": {"name": "block_15_depthwise_BN", "trainable": true, "dtype": "float32", "axis": [3], "momentum": 0.999, "epsilon": 0.001, "center": true, "scale": true, "beta_initializer": {"class_name": "Zeros", "config": {"dtype": "float32"}}, "gamma_initializer": {"class_name": "Ones", "config": {"dtype": "float32"}}, "moving_mean_initializer": {"class_name": "Zeros", "config": {"dtype": "float32"}}, "moving_variance_initializer": {"class_name": "Ones", "config": {"dtype": "float32"}}, "beta_regularizer": null, "gamma_regularizer": null, "beta_constraint": null, "gamma_constraint": null}, "inbound_nodes": [["block_15_depthwise", 0, 0, {}]]}, {"name": "block_15_depthwise_relu", "class_name": "ReLU", "config": {"name": "block_15_depthwise_relu", "trainable": true, "dtype": "float32", "max_value": 6.0, "negative_slope": 0.0, "threshold": 0.0}, "inbound_nodes": [["block_15_depthwise_BN", 0, 0, {}]]}, {"name": "block_15_project", "class_name": "Conv2D", "config": {"name": "block_15_project", "trainable": true, "dtype": "float32", "filters": 80, "kernel_size": [1, 1], "strides": [1, 1], "padding": "same", "data_format": "channels_last", "dilation_rate": [1, 1], "activation": "linear", "use_bias": false, "kernel_initializer": {"class_name": "GlorotUniform", "config": {"seed": null, "dtype": "float32"}}, "bias_initializer": {"class_name": "Zeros", "config": {"dtype": "float32"}}, "kernel_regularizer": null, "bias_regularizer": null, "activity_regularizer": null, "kernel_constraint": null, "bias_constraint": null}, "inbound_nodes": [["block_15_depthwise_relu", 0, 0, {}]]}, {"name": "block_15_project_BN", "class_name": "BatchNormalizationV1", "config": {"name": "block_15_project_BN", "trainable": true, "dtype": "float32", "axis": [3], "momentum": 0.999, "epsilon": 0.001, "center": true, "scale": true, "beta_initializer": {"class_name": "Zeros", "config": {"dtype": "float32"}}, "gamma_initializer": {"class_name": "Ones", "config": {"dtype": "float32"}}, "moving_mean_initializer": {"class_name": "Zeros", "config": {"dtype": "float32"}}, "moving_variance_initializer": {"class_name": "Ones", "config": {"dtype": "float32"}}, "beta_regularizer": null, "gamma_regularizer": null, "beta_constraint": null, "gamma_constraint": null}, "inbound_nodes": [["block_15_project", 0, 0, {}]]}, {"name": "block_15_add", "class_name": "Add", "config": {"name": "block_15_add", "trainable": true, "dtype": "float32"}, "inbound_nodes": [[["block_14_add", 0, 0, {}], ["block_15_project_BN", 0, 0, {}]]]}, {"name": "block_16_expand", "class_name": "Conv2D", "config": {"name": "block_16_expand", "trainable": true, "dtype": "float32", "filters": 480, "kernel_size": [1, 1], "strides": [1, 1], "padding": "same", "data_format": "channels_last", "dilation_rate": [1, 1], "activation": "linear", "use_bias": false, "kernel_initializer": {"class_name": "GlorotUniform", "config": {"seed": null, "dtype": "float32"}}, "bias_initializer": {"class_name": "Zeros", "config": {"dtype": "float32"}}, "kernel_regularizer": null, "bias_regularizer": null, "activity_regularizer": null, "kernel_constraint": null, "bias_constraint": null}, "inbound_nodes": [["block_15_add", 0, 0, {}]]}, {"name": "block_16_expand_BN", "class_name": "BatchNormalizationV1", "config": {"name": "block_16_expand_BN", "trainable": true, "dtype": "float32", "axis": [3], "momentum": 0.999, "epsilon": 0.001, "center": true, "scale": true, "beta_initializer": {"class_name": "Zeros", "config": {"dtype": "float32"}}, "gamma_initializer": {"class_name": "Ones", "config": {"dtype": "float32"}}, "moving_mean_initializer": {"class_name": "Zeros", "config": {"dtype": "float32"}}, "moving_variance_initializer": {"class_name": "Ones", "config": {"dtype": "float32"}}, "beta_regularizer": null, "gamma_regularizer": null, "beta_constraint": null, "gamma_constraint": null}, "inbound_nodes": [["block_16_expand", 0, 0, {}]]}, {"name": "block_16_expand_relu", "class_name": "ReLU", "config": {"name": "block_16_expand_relu", "trainable": true, "dtype": "float32", "max_value": 6.0, "negative_slope": 0.0, "threshold": 0.0}, "inbound_nodes": [["block_16_expand_BN", 0, 0, {}]]}, {"name": "block_16_depthwise", "class_name": "DepthwiseConv2D", "config": {"name": "block_16_depthwise", "trainable": true, "dtype": "float32", "kernel_size": [3, 3], "strides": [1, 1], "padding": "same", "data_format": "channels_last", "dilation_rate": [1, 1], "activation": "linear", "use_bias": false, "bias_initializer": {"class_name": "Zeros", "config": {"dtype": "float32"}}, "bias_regularizer": null, "activity_regularizer": null, "bias_constraint": null, "depth_multiplier": 1, "depthwise_initializer": {"class_name": "GlorotUniform", "config": {"seed": null, "dtype": "float32"}}, "depthwise_regularizer": null, "depthwise_constraint": null}, "inbound_nodes": [["block_16_expand_relu", 0, 0, {}]]}, {"name": "block_16_depthwise_BN", "class_name": "BatchNormalizationV1", "config": {"name": "block_16_depthwise_BN", "trainable": true, "dtype": "float32", "axis": [3], "momentum": 0.999, "epsilon": 0.001, "center": true, "scale": true, "beta_initializer": {"class_name": "Zeros", "config": {"dtype": "float32"}}, "gamma_initializer": {"class_name": "Ones", "config": {"dtype": "float32"}}, "moving_mean_initializer": {"class_name": "Zeros", "config": {"dtype": "float32"}}, "moving_variance_initializer": {"class_name": "Ones", "config": {"dtype": "float32"}}, "beta_regularizer": null, "gamma_regularizer": null, "beta_constraint": null, "gamma_constraint": null}, "inbound_nodes": [["block_16_depthwise", 0, 0, {}]]}, {"name": "block_16_depthwise_relu", "class_name": "ReLU", "config": {"name": "block_16_depthwise_relu", "trainable": true, "dtype": "float32", "max_value": 6.0, "negative_slope": 0.0, "threshold": 0.0}, "inbound_nodes": [["block_16_depthwise_BN", 0, 0, {}]]}, {"name": "block_16_project", "class_name": "Conv2D", "config": {"name": "block_16_project", "trainable": true, "dtype": "float32", "filters": 160, "kernel_size": [1, 1], "strides": [1, 1], "padding": "same", "data_format": "channels_last", "dilation_rate": [1, 1], "activation": "linear", "use_bias": false, "kernel_initializer": {"class_name": "GlorotUniform", "config": {"seed": null, "dtype": "float32"}}, "bias_initializer": {"class_name": "Zeros", "config": {"dtype": "float32"}}, "kernel_regularizer": null, "bias_regularizer": null, "activity_regularizer": null, "kernel_constraint": null, "bias_constraint": null}, "inbound_nodes": [["block_16_depthwise_relu", 0, 0, {}]]}, {"name": "block_16_project_BN", "class_name": "BatchNormalizationV1", "config": {"name": "block_16_project_BN", "trainable": true, "dtype": "float32", "axis": [3], "momentum": 0.999, "epsilon": 0.001, "center": true, "scale": true, "beta_initializer": {"class_name": "Zeros", "config": {"dtype": "float32"}}, "gamma_initializer": {"class_name": "Ones", "config": {"dtype": "float32"}}, "moving_mean_initializer": {"class_name": "Zeros", "config": {"dtype": "float32"}}, "moving_variance_initializer": {"class_name": "Ones", "config": {"dtype": "float32"}}, "beta_regularizer": null, "gamma_regularizer": null, "beta_constraint": null, "gamma_constraint": null}, "inbound_nodes": [["block_16_project", 0, 0, {}]]}, {"name": "Conv_1", "class_name": "Conv2D", "config": {"name": "Conv_1", "trainable": true, "dtype": "float32", "filters": 1280, "kernel_size": [1, 1], "strides": [1, 1], "padding": "valid", "data_format": "channels_last", "dilation_rate": [1, 1], "activation": "linear", "use_bias": false, "kernel_initializer": {"class_name": "GlorotUniform", "config": {"seed": null, "dtype": "float32"}}, "bias_initializer": {"class_name": "Zeros", "config": {"dtype": "float32"}}, "kernel_regularizer": null, "bias_regularizer": null, "activity_regularizer": null, "kernel_constraint": null, "bias_constraint": null}, "inbound_nodes": [["block_16_project_BN", 0, 0, {}]]}, {"name": "Conv_1_bn", "class_name": "BatchNormalizationV1", "config": {"name": "Conv_1_bn", "trainable": true, "dtype": "float32", "axis": [3], "momentum": 0.999, "epsilon": 0.001, "center": true, "scale": true, "beta_initializer": {"class_name": "Zeros", "config": {"dtype": "float32"}}, "gamma_initializer": {"class_name": "Ones", "config": {"dtype": "float32"}}, "moving_mean_initializer": {"class_name": "Zeros", "config": {"dtype": "float32"}}, "moving_variance_initializer": {"class_name": "Ones", "config": {"dtype": "float32"}}, "beta_regularizer": null, "gamma_regularizer": null, "beta_constraint": null, "gamma_constraint": null}, "inbound_nodes": [["Conv_1", 0, 0, {}]]}, {"name": "out_relu", "class_name": "ReLU", "config": {"name": "out_relu", "trainable": true, "dtype": "float32", "max_value": 6.0, "negative_slope": 0.0, "threshold": 0.0}, "inbound_nodes": [["Conv_1_bn", 0, 0, {}]]}, {"name": "global_max_pooling2d", "class_name": "GlobalMaxPooling2D", "config": {"name": "global_max_pooling2d", "trainable": true, "dtype": "float32", "data_format": "channels_last"}, "inbound_nodes": [["out_relu", 0, 0, {}]]}, {"name": "dense", "class_name": "Dense", "config": {"name": "dense", "trainable": true, "dtype": "float32", "units": 128, "activation": "softmax", "use_bias": true, "kernel_initializer": {"class_name": "GlorotUniform", "config": {"seed": 1337, "dtype": "float32"}}, "bias_initializer": {"class_name": "Zeros", "config": {"dtype": "float32"}}, "kernel_regularizer": null, "bias_regularizer": null, "activity_regularizer": null, "kernel_constraint": null, "bias_constraint": null}, "inbound_nodes": [["global_max_pooling2d", 0, 0, {}]]}], "input_layers": ["input_1", 0, 0], "output_layers": ["dense", 0, 0]}}, "training_config": {"optimizer_config": {"class_name": "Adam", "config": {"name": "Adam", "learning_rate": 0.0010000000474974513, "decay": 0.0, "beta_1": 0.8999999761581421, "beta_2": 0.9990000128746033, "epsilon": 1.0000000116860974e-07, "amsgrad": false}}, "loss": "categorical_crossentropy", "metrics": ["accuracy"], "weighted_metrics": null, "sample_weight_mode": null, "loss_weights": null}}, "weightsManifest": [{"paths": ["group1-shard1of1"], "weights": [{"name": "ReadVariableOp_1050", "shape": [3, 3, 3, 16], "dtype": "float32"}, {"name": "ReadVariableOp_1305", "shape": [1, 1, 160, 1280], "dtype": "float32"}, {"name": "ReadVariableOp_1306", "shape": [1280], "dtype": "float32"}, {"name": "ReadVariableOp_1307", "shape": [1280], "dtype": "float32"}, {"name": "ReadVariableOp_1308", "shape": [1280], "dtype": "float32"}, {"name": "ReadVariableOp_1309", "shape": [1280], "dtype": "float32"}, {"name": "ReadVariableOp_1205", "shape": [3, 3, 192, 1], "dtype": "float32"}, {"name": "ReadVariableOp_1206", "shape": [192], "dtype": "float32"}, {"name": "ReadVariableOp_1207", "shape": [192], "dtype": "float32"}, {"name": "ReadVariableOp_1208", "shape": [192], "dtype": "float32"}, {"name": "ReadVariableOp_1209", "shape": [192], "dtype": "float32"}, {"name": "ReadVariableOp_1200", "shape": [1, 1, 32, 192], "dtype": "float32"}, {"name": "ReadVariableOp_1201", "shape": [192], "dtype": "float32"}, {"name": "ReadVariableOp_1202", "shape": [192], "dtype": "float32"}, {"name": "ReadVariableOp_1203", "shape": [192], "dtype": "float32"}, {"name": "ReadVariableOp_1204", "shape": [192], "dtype": "float32"}, {"name": "ReadVariableOp_1210", "shape": [1, 1, 192, 48], "dtype": "float32"}, {"name": "ReadVariableOp_1211", "shape": [48], "dtype": "float32"}, {"name": "ReadVariableOp_1212", "shape": [48], "dtype": "float32"}, {"name": "ReadVariableOp_1213", "shape": [48], "dtype": "float32"}, {"name": "ReadVariableOp_1214", "shape": [48], "dtype": "float32"}, {"name": "ReadVariableOp_1220", "shape": [3, 3, 288, 1], "dtype": "float32"}, {"name": "ReadVariableOp_1221", "shape": [288], "dtype": "float32"}, {"name": "ReadVariableOp_1222", "shape": [288], "dtype": "float32"}, {"name": "ReadVariableOp_1223", "shape": [288], "dtype": "float32"}, {"name": "ReadVariableOp_1224", "shape": [288], "dtype": "float32"}, {"name": "ReadVariableOp_1215", "shape": [1, 1, 48, 288], "dtype": "float32"}, {"name": "ReadVariableOp_1216", "shape": [288], "dtype": "float32"}, {"name": "ReadVariableOp_1217", "shape": [288], "dtype": "float32"}, {"name": "ReadVariableOp_1218", "shape": [288], "dtype": "float32"}, {"name": "ReadVariableOp_1219", "shape": [288], "dtype": "float32"}, {"name": "ReadVariableOp_1225", "shape": [1, 1, 288, 48], "dtype": "float32"}, {"name": "ReadVariableOp_1226", "shape": [48], "dtype": "float32"}, {"name": "ReadVariableOp_1227", "shape": [48], "dtype": "float32"}, {"name": "ReadVariableOp_1228", "shape": [48], "dtype": "float32"}, {"name": "ReadVariableOp_1229", "shape": [48], "dtype": "float32"}, {"name": "ReadVariableOp_1235", "shape": [3, 3, 288, 1], "dtype": "float32"}, {"name": "ReadVariableOp_1236", "shape": [288], "dtype": "float32"}, {"name": "ReadVariableOp_1237", "shape": [288], "dtype": "float32"}, {"name": "ReadVariableOp_1238", "shape": [288], "dtype": "float32"}, {"name": "ReadVariableOp_1239", "shape": [288], "dtype": "float32"}, {"name": "ReadVariableOp_1230", "shape": [1, 1, 48, 288], "dtype": "float32"}, {"name": "ReadVariableOp_1231", "shape": [288], "dtype": "float32"}, {"name": "ReadVariableOp_1232", "shape": [288], "dtype": "float32"}, {"name": "ReadVariableOp_1233", "shape": [288], "dtype": "float32"}, {"name": "ReadVariableOp_1234", "shape": [288], "dtype": "float32"}, {"name": "ReadVariableOp_1240", "shape": [1, 1, 288, 48], "dtype": "float32"}, {"name": "ReadVariableOp_1241", "shape": [48], "dtype": "float32"}, {"name": "ReadVariableOp_1242", "shape": [48], "dtype": "float32"}, {"name": "ReadVariableOp_1243", "shape": [48], "dtype": "float32"}, {"name": "ReadVariableOp_1244", "shape": [48], "dtype": "float32"}, {"name": "ReadVariableOp_1250", "shape": [3, 3, 288, 1], "dtype": "float32"}, {"name": "ReadVariableOp_1251", "shape": [288], "dtype": "float32"}, {"name": "ReadVariableOp_1252", "shape": [288], "dtype": "float32"}, {"name": "ReadVariableOp_1253", "shape": [288], "dtype": "float32"}, {"name": "ReadVariableOp_1254", "shape": [288], "dtype": "float32"}, {"name": "ReadVariableOp_1245", "shape": [1, 1, 48, 288], "dtype": "float32"}, {"name": "ReadVariableOp_1246", "shape": [288], "dtype": "float32"}, {"name": "ReadVariableOp_1247", "shape": [288], "dtype": "float32"}, {"name": "ReadVariableOp_1248", "shape": [288], "dtype": "float32"}, {"name": "ReadVariableOp_1249", "shape": [288], "dtype": "float32"}, {"name": "ReadVariableOp_1255", "shape": [1, 1, 288, 80], "dtype": "float32"}, {"name": "ReadVariableOp_1256", "shape": [80], "dtype": "float32"}, {"name": "ReadVariableOp_1257", "shape": [80], "dtype": "float32"}, {"name": "ReadVariableOp_1258", "shape": [80], "dtype": "float32"}, {"name": "ReadVariableOp_1259", "shape": [80], "dtype": "float32"}, {"name": "ReadVariableOp_1265", "shape": [3, 3, 480, 1], "dtype": "float32"}, {"name": "ReadVariableOp_1266", "shape": [480], "dtype": "float32"}, {"name": "ReadVariableOp_1267", "shape": [480], "dtype": "float32"}, {"name": "ReadVariableOp_1268", "shape": [480], "dtype": "float32"}, {"name": "ReadVariableOp_1269", "shape": [480], "dtype": "float32"}, {"name": "ReadVariableOp_1260", "shape": [1, 1, 80, 480], "dtype": "float32"}, {"name": "ReadVariableOp_1261", "shape": [480], "dtype": "float32"}, {"name": "ReadVariableOp_1262", "shape": [480], "dtype": "float32"}, {"name": "ReadVariableOp_1263", "shape": [480], "dtype": "float32"}, {"name": "ReadVariableOp_1264", "shape": [480], "dtype": "float32"}, {"name": "ReadVariableOp_1270", "shape": [1, 1, 480, 80], "dtype": "float32"}, {"name": "ReadVariableOp_1271", "shape": [80], "dtype": "float32"}, {"name": "ReadVariableOp_1272", "shape": [80], "dtype": "float32"}, {"name": "ReadVariableOp_1273", "shape": [80], "dtype": "float32"}, {"name": "ReadVariableOp_1274", "shape": [80], "dtype": "float32"}, {"name": "ReadVariableOp_1280", "shape": [3, 3, 480, 1], "dtype": "float32"}, {"name": "ReadVariableOp_1281", "shape": [480], "dtype": "float32"}, {"name": "ReadVariableOp_1282", "shape": [480], "dtype": "float32"}, {"name": "ReadVariableOp_1283", "shape": [480], "dtype": "float32"}, {"name": "ReadVariableOp_1284", "shape": [480], "dtype": "float32"}, {"name": "ReadVariableOp_1275", "shape": [1, 1, 80, 480], "dtype": "float32"}, {"name": "ReadVariableOp_1276", "shape": [480], "dtype": "float32"}, {"name": "ReadVariableOp_1277", "shape": [480], "dtype": "float32"}, {"name": "ReadVariableOp_1278", "shape": [480], "dtype": "float32"}, {"name": "ReadVariableOp_1279", "shape": [480], "dtype": "float32"}, {"name": "ReadVariableOp_1285", "shape": [1, 1, 480, 80], "dtype": "float32"}, {"name": "ReadVariableOp_1286", "shape": [80], "dtype": "float32"}, {"name": "ReadVariableOp_1287", "shape": [80], "dtype": "float32"}, {"name": "ReadVariableOp_1288", "shape": [80], "dtype": "float32"}, {"name": "ReadVariableOp_1289", "shape": [80], "dtype": "float32"}, {"name": "ReadVariableOp_1295", "shape": [3, 3, 480, 1], "dtype": "float32"}, {"name": "ReadVariableOp_1296", "shape": [480], "dtype": "float32"}, {"name": "ReadVariableOp_1297", "shape": [480], "dtype": "float32"}, {"name": "ReadVariableOp_1298", "shape": [480], "dtype": "float32"}, {"name": "ReadVariableOp_1299", "shape": [480], "dtype": "float32"}, {"name": "ReadVariableOp_1290", "shape": [1, 1, 80, 480], "dtype": "float32"}, {"name": "ReadVariableOp_1291", "shape": [480], "dtype": "float32"}, {"name": "ReadVariableOp_1292", "shape": [480], "dtype": "float32"}, {"name": "ReadVariableOp_1293", "shape": [480], "dtype": "float32"}, {"name": "ReadVariableOp_1294", "shape": [480], "dtype": "float32"}, {"name": "ReadVariableOp_1300", "shape": [1, 1, 480, 160], "dtype": "float32"}, {"name": "ReadVariableOp_1301", "shape": [160], "dtype": "float32"}, {"name": "ReadVariableOp_1302", "shape": [160], "dtype": "float32"}, {"name": "ReadVariableOp_1303", "shape": [160], "dtype": "float32"}, {"name": "ReadVariableOp_1304", "shape": [160], "dtype": "float32"}, {"name": "ReadVariableOp_1070", "shape": [3, 3, 48, 1], "dtype": "float32"}, {"name": "ReadVariableOp_1071", "shape": [48], "dtype": "float32"}, {"name": "ReadVariableOp_1072", "shape": [48], "dtype": "float32"}, {"name": "ReadVariableOp_1073", "shape": [48], "dtype": "float32"}, {"name": "ReadVariableOp_1074", "shape": [48], "dtype": "float32"}, {"name": "ReadVariableOp_1065", "shape": [1, 1, 8, 48], "dtype": "float32"}, {"name": "ReadVariableOp_1066", "shape": [48], "dtype": "float32"}, {"name": "ReadVariableOp_1067", "shape": [48], "dtype": "float32"}, {"name": "ReadVariableOp_1068", "shape": [48], "dtype": "float32"}, {"name": "ReadVariableOp_1069", "shape": [48], "dtype": "float32"}, {"name": "ReadVariableOp_1075", "shape": [1, 1, 48, 16], "dtype": "float32"}, {"name": "ReadVariableOp_1076", "shape": [16], "dtype": "float32"}, {"name": "ReadVariableOp_1077", "shape": [16], "dtype": "float32"}, {"name": "ReadVariableOp_1078", "shape": [16], "dtype": "float32"}, {"name": "ReadVariableOp_1079", "shape": [16], "dtype": "float32"}, {"name": "ReadVariableOp_1085", "shape": [3, 3, 96, 1], "dtype": "float32"}, {"name": "ReadVariableOp_1086", "shape": [96], "dtype": "float32"}, {"name": "ReadVariableOp_1087", "shape": [96], "dtype": "float32"}, {"name": "ReadVariableOp_1088", "shape": [96], "dtype": "float32"}, {"name": "ReadVariableOp_1089", "shape": [96], "dtype": "float32"}, {"name": "ReadVariableOp_1080", "shape": [1, 1, 16, 96], "dtype": "float32"}, {"name": "ReadVariableOp_1081", "shape": [96], "dtype": "float32"}, {"name": "ReadVariableOp_1082", "shape": [96], "dtype": "float32"}, {"name": "ReadVariableOp_1083", "shape": [96], "dtype": "float32"}, {"name": "ReadVariableOp_1084", "shape": [96], "dtype": "float32"}, {"name": "ReadVariableOp_1090", "shape": [1, 1, 96, 16], "dtype": "float32"}, {"name": "ReadVariableOp_1091", "shape": [16], "dtype": "float32"}, {"name": "ReadVariableOp_1092", "shape": [16], "dtype": "float32"}, {"name": "ReadVariableOp_1093", "shape": [16], "dtype": "float32"}, {"name": "ReadVariableOp_1094", "shape": [16], "dtype": "float32"}, {"name": "ReadVariableOp_1100", "shape": [3, 3, 96, 1], "dtype": "float32"}, {"name": "ReadVariableOp_1101", "shape": [96], "dtype": "float32"}, {"name": "ReadVariableOp_1102", "shape": [96], "dtype": "float32"}, {"name": "ReadVariableOp_1103", "shape": [96], "dtype": "float32"}, {"name": "ReadVariableOp_1104", "shape": [96], "dtype": "float32"}, {"name": "ReadVariableOp_1095", "shape": [1, 1, 16, 96], "dtype": "float32"}, {"name": "ReadVariableOp_1096", "shape": [96], "dtype": "float32"}, {"name": "ReadVariableOp_1097", "shape": [96], "dtype": "float32"}, {"name": "ReadVariableOp_1098", "shape": [96], "dtype": "float32"}, {"name": "ReadVariableOp_1099", "shape": [96], "dtype": "float32"}, {"name": "ReadVariableOp_1105", "shape": [1, 1, 96, 16], "dtype": "float32"}, {"name": "ReadVariableOp_1106", "shape": [16], "dtype": "float32"}, {"name": "ReadVariableOp_1107", "shape": [16], "dtype": "float32"}, {"name": "ReadVariableOp_1108", "shape": [16], "dtype": "float32"}, {"name": "ReadVariableOp_1109", "shape": [16], "dtype": "float32"}, {"name": "ReadVariableOp_1115", "shape": [3, 3, 96, 1], "dtype": "float32"}, {"name": "ReadVariableOp_1116", "shape": [96], "dtype": "float32"}, {"name": "ReadVariableOp_1117", "shape": [96], "dtype": "float32"}, {"name": "ReadVariableOp_1118", "shape": [96], "dtype": "float32"}, {"name": "ReadVariableOp_1119", "shape": [96], "dtype": "float32"}, {"name": "ReadVariableOp_1110", "shape": [1, 1, 16, 96], "dtype": "float32"}, {"name": "ReadVariableOp_1111", "shape": [96], "dtype": "float32"}, {"name": "ReadVariableOp_1112", "shape": [96], "dtype": "float32"}, {"name": "ReadVariableOp_1113", "shape": [96], "dtype": "float32"}, {"name": "ReadVariableOp_1114", "shape": [96], "dtype": "float32"}, {"name": "ReadVariableOp_1120", "shape": [1, 1, 96, 16], "dtype": "float32"}, {"name": "ReadVariableOp_1121", "shape": [16], "dtype": "float32"}, {"name": "ReadVariableOp_1122", "shape": [16], "dtype": "float32"}, {"name": "ReadVariableOp_1123", "shape": [16], "dtype": "float32"}, {"name": "ReadVariableOp_1124", "shape": [16], "dtype": "float32"}, {"name": "ReadVariableOp_1130", "shape": [3, 3, 96, 1], "dtype": "float32"}, {"name": "ReadVariableOp_1131", "shape": [96], "dtype": "float32"}, {"name": "ReadVariableOp_1132", "shape": [96], "dtype": "float32"}, {"name": "ReadVariableOp_1133", "shape": [96], "dtype": "float32"}, {"name": "ReadVariableOp_1134", "shape": [96], "dtype": "float32"}, {"name": "ReadVariableOp_1125", "shape": [1, 1, 16, 96], "dtype": "float32"}, {"name": "ReadVariableOp_1126", "shape": [96], "dtype": "float32"}, {"name": "ReadVariableOp_1127", "shape": [96], "dtype": "float32"}, {"name": "ReadVariableOp_1128", "shape": [96], "dtype": "float32"}, {"name": "ReadVariableOp_1129", "shape": [96], "dtype": "float32"}, {"name": "ReadVariableOp_1135", "shape": [1, 1, 96, 16], "dtype": "float32"}, {"name": "ReadVariableOp_1136", "shape": [16], "dtype": "float32"}, {"name": "ReadVariableOp_1137", "shape": [16], "dtype": "float32"}, {"name": "ReadVariableOp_1138", "shape": [16], "dtype": "float32"}, {"name": "ReadVariableOp_1139", "shape": [16], "dtype": "float32"}, {"name": "ReadVariableOp_1145", "shape": [3, 3, 96, 1], "dtype": "float32"}, {"name": "ReadVariableOp_1146", "shape": [96], "dtype": "float32"}, {"name": "ReadVariableOp_1147", "shape": [96], "dtype": "float32"}, {"name": "ReadVariableOp_1148", "shape": [96], "dtype": "float32"}, {"name": "ReadVariableOp_1149", "shape": [96], "dtype": "float32"}, {"name": "ReadVariableOp_1140", "shape": [1, 1, 16, 96], "dtype": "float32"}, {"name": "ReadVariableOp_1141", "shape": [96], "dtype": "float32"}, {"name": "ReadVariableOp_1142", "shape": [96], "dtype": "float32"}, {"name": "ReadVariableOp_1143", "shape": [96], "dtype": "float32"}, {"name": "ReadVariableOp_1144", "shape": [96], "dtype": "float32"}, {"name": "ReadVariableOp_1150", "shape": [1, 1, 96, 32], "dtype": "float32"}, {"name": "ReadVariableOp_1151", "shape": [32], "dtype": "float32"}, {"name": "ReadVariableOp_1152", "shape": [32], "dtype": "float32"}, {"name": "ReadVariableOp_1153", "shape": [32], "dtype": "float32"}, {"name": "ReadVariableOp_1154", "shape": [32], "dtype": "float32"}, {"name": "ReadVariableOp_1160", "shape": [3, 3, 192, 1], "dtype": "float32"}, {"name": "ReadVariableOp_1161", "shape": [192], "dtype": "float32"}, {"name": "ReadVariableOp_1162", "shape": [192], "dtype": "float32"}, {"name": "ReadVariableOp_1163", "shape": [192], "dtype": "float32"}, {"name": "ReadVariableOp_1164", "shape": [192], "dtype": "float32"}, {"name": "ReadVariableOp_1155", "shape": [1, 1, 32, 192], "dtype": "float32"}, {"name": "ReadVariableOp_1156", "shape": [192], "dtype": "float32"}, {"name": "ReadVariableOp_1157", "shape": [192], "dtype": "float32"}, {"name": "ReadVariableOp_1158", "shape": [192], "dtype": "float32"}, {"name": "ReadVariableOp_1159", "shape": [192], "dtype": "float32"}, {"name": "ReadVariableOp_1165", "shape": [1, 1, 192, 32], "dtype": "float32"}, {"name": "ReadVariableOp_1166", "shape": [32], "dtype": "float32"}, {"name": "ReadVariableOp_1167", "shape": [32], "dtype": "float32"}, {"name": "ReadVariableOp_1168", "shape": [32], "dtype": "float32"}, {"name": "ReadVariableOp_1169", "shape": [32], "dtype": "float32"}, {"name": "ReadVariableOp_1175", "shape": [3, 3, 192, 1], "dtype": "float32"}, {"name": "ReadVariableOp_1176", "shape": [192], "dtype": "float32"}, {"name": "ReadVariableOp_1177", "shape": [192], "dtype": "float32"}, {"name": "ReadVariableOp_1178", "shape": [192], "dtype": "float32"}, {"name": "ReadVariableOp_1179", "shape": [192], "dtype": "float32"}, {"name": "ReadVariableOp_1170", "shape": [1, 1, 32, 192], "dtype": "float32"}, {"name": "ReadVariableOp_1171", "shape": [192], "dtype": "float32"}, {"name": "ReadVariableOp_1172", "shape": [192], "dtype": "float32"}, {"name": "ReadVariableOp_1173", "shape": [192], "dtype": "float32"}, {"name": "ReadVariableOp_1174", "shape": [192], "dtype": "float32"}, {"name": "ReadVariableOp_1180", "shape": [1, 1, 192, 32], "dtype": "float32"}, {"name": "ReadVariableOp_1181", "shape": [32], "dtype": "float32"}, {"name": "ReadVariableOp_1182", "shape": [32], "dtype": "float32"}, {"name": "ReadVariableOp_1183", "shape": [32], "dtype": "float32"}, {"name": "ReadVariableOp_1184", "shape": [32], "dtype": "float32"}, {"name": "ReadVariableOp_1190", "shape": [3, 3, 192, 1], "dtype": "float32"}, {"name": "ReadVariableOp_1191", "shape": [192], "dtype": "float32"}, {"name": "ReadVariableOp_1192", "shape": [192], "dtype": "float32"}, {"name": "ReadVariableOp_1193", "shape": [192], "dtype": "float32"}, {"name": "ReadVariableOp_1194", "shape": [192], "dtype": "float32"}, {"name": "ReadVariableOp_1185", "shape": [1, 1, 32, 192], "dtype": "float32"}, {"name": "ReadVariableOp_1186", "shape": [192], "dtype": "float32"}, {"name": "ReadVariableOp_1187", "shape": [192], "dtype": "float32"}, {"name": "ReadVariableOp_1188", "shape": [192], "dtype": "float32"}, {"name": "ReadVariableOp_1189", "shape": [192], "dtype": "float32"}, {"name": "ReadVariableOp_1195", "shape": [1, 1, 192, 32], "dtype": "float32"}, {"name": "ReadVariableOp_1196", "shape": [32], "dtype": "float32"}, {"name": "ReadVariableOp_1197", "shape": [32], "dtype": "float32"}, {"name": "ReadVariableOp_1198", "shape": [32], "dtype": "float32"}, {"name": "ReadVariableOp_1199", "shape": [32], "dtype": "float32"}, {"name": "ReadVariableOp_1051", "shape": [16], "dtype": "float32"}, {"name": "ReadVariableOp_1052", "shape": [16], "dtype": "float32"}, {"name": "ReadVariableOp_1053", "shape": [16], "dtype": "float32"}, {"name": "ReadVariableOp_1054", "shape": [16], "dtype": "float32"}, {"name": "ReadVariableOp_1310", "shape": [1280, 128], "dtype": "float32"}, {"name": "ReadVariableOp_1311", "shape": [128], "dtype": "float32"}, {"name": "ReadVariableOp_1055", "shape": [3, 3, 16, 1], "dtype": "float32"}, {"name": "ReadVariableOp_1056", "shape": [16], "dtype": "float32"}, {"name": "ReadVariableOp_1057", "shape": [16], "dtype": "float32"}, {"name": "ReadVariableOp_1058", "shape": [16], "dtype": "float32"}, {"name": "ReadVariableOp_1059", "shape": [16], "dtype": "float32"}, {"name": "ReadVariableOp_1060", "shape": [1, 1, 16, 8], "dtype": "float32"}, {"name": "ReadVariableOp_1061", "shape": [8], "dtype": "float32"}, {"name": "ReadVariableOp_1062", "shape": [8], "dtype": "float32"}, {"name": "ReadVariableOp_1063", "shape": [8], "dtype": "float32"}, {"name": "ReadVariableOp_1064", "shape": [8], "dtype": "float32"}]}]}